node {
  name: "zeros/shape_as_tensor"
  op: "Const"
  attr {
    key: "_output_shapes"
    value {
      list {
        shape {
          dim {
          }
        }
      }
    }
  }
  attr {
    key: "dtype"
    value {
      type: DT_INT32
    }
  }
  attr {
    key: "value"
    value {
      tensor {
        dtype: DT_INT32
        tensor_shape {
          dim {
          }
        }
      }
    }
  }
}
node {
  name: "zeros/Const"
  op: "Const"
  attr {
    key: "_output_shapes"
    value {
      list {
        shape {
        }
      }
    }
  }
  attr {
    key: "dtype"
    value {
      type: DT_INT64
    }
  }
  attr {
    key: "value"
    value {
      tensor {
        dtype: DT_INT64
        tensor_shape {
        }
        int64_val: 0
      }
    }
  }
}
node {
  name: "zeros"
  op: "Fill"
  input: "zeros/shape_as_tensor"
  input: "zeros/Const"
  attr {
    key: "T"
    value {
      type: DT_INT64
    }
  }
  attr {
    key: "_output_shapes"
    value {
      list {
        shape {
        }
      }
    }
  }
  attr {
    key: "index_type"
    value {
      type: DT_INT32
    }
  }
}
node {
  name: "parallel_read/filenames/Const"
  op: "Const"
  attr {
    key: "_output_shapes"
    value {
      list {
        shape {
          dim {
            size: 2
          }
        }
      }
    }
  }
  attr {
    key: "dtype"
    value {
      type: DT_STRING
    }
  }
  attr {
    key: "value"
    value {
      tensor {
        dtype: DT_STRING
        tensor_shape {
          dim {
            size: 2
          }
        }
        string_val: "D:\\train\\traincvsd_train_00000-of-00002.tfrecord"
        string_val: "D:\\train\\traincvsd_train_00001-of-00002.tfrecord"
      }
    }
  }
}
node {
  name: "parallel_read/filenames/Size"
  op: "Const"
  attr {
    key: "_output_shapes"
    value {
      list {
        shape {
        }
      }
    }
  }
  attr {
    key: "dtype"
    value {
      type: DT_INT32
    }
  }
  attr {
    key: "value"
    value {
      tensor {
        dtype: DT_INT32
        tensor_shape {
        }
        int_val: 2
      }
    }
  }
}
node {
  name: "parallel_read/filenames/Greater/y"
  op: "Const"
  attr {
    key: "_output_shapes"
    value {
      list {
        shape {
        }
      }
    }
  }
  attr {
    key: "dtype"
    value {
      type: DT_INT32
    }
  }
  attr {
    key: "value"
    value {
      tensor {
        dtype: DT_INT32
        tensor_shape {
        }
        int_val: 0
      }
    }
  }
}
node {
  name: "parallel_read/filenames/Greater"
  op: "Greater"
  input: "parallel_read/filenames/Size"
  input: "parallel_read/filenames/Greater/y"
  attr {
    key: "T"
    value {
      type: DT_INT32
    }
  }
  attr {
    key: "_output_shapes"
    value {
      list {
        shape {
        }
      }
    }
  }
}
node {
  name: "parallel_read/filenames/Assert/Const"
  op: "Const"
  attr {
    key: "_output_shapes"
    value {
      list {
        shape {
        }
      }
    }
  }
  attr {
    key: "dtype"
    value {
      type: DT_STRING
    }
  }
  attr {
    key: "value"
    value {
      tensor {
        dtype: DT_STRING
        tensor_shape {
        }
        string_val: "string_input_producer requires a non-null input tensor"
      }
    }
  }
}
node {
  name: "parallel_read/filenames/Assert/Assert/data_0"
  op: "Const"
  attr {
    key: "_output_shapes"
    value {
      list {
        shape {
        }
      }
    }
  }
  attr {
    key: "dtype"
    value {
      type: DT_STRING
    }
  }
  attr {
    key: "value"
    value {
      tensor {
        dtype: DT_STRING
        tensor_shape {
        }
        string_val: "string_input_producer requires a non-null input tensor"
      }
    }
  }
}
node {
  name: "parallel_read/filenames/Assert/Assert"
  op: "Assert"
  input: "parallel_read/filenames/Greater"
  input: "parallel_read/filenames/Assert/Assert/data_0"
  attr {
    key: "T"
    value {
      list {
        type: DT_STRING
      }
    }
  }
  attr {
    key: "summarize"
    value {
      i: 3
    }
  }
}
node {
  name: "parallel_read/filenames/Identity"
  op: "Identity"
  input: "parallel_read/filenames/Const"
  input: "^parallel_read/filenames/Assert/Assert"
  attr {
    key: "T"
    value {
      type: DT_STRING
    }
  }
  attr {
    key: "_output_shapes"
    value {
      list {
        shape {
          dim {
            size: 2
          }
        }
      }
    }
  }
}
node {
  name: "parallel_read/filenames/RandomShuffle"
  op: "RandomShuffle"
  input: "parallel_read/filenames/Identity"
  attr {
    key: "T"
    value {
      type: DT_STRING
    }
  }
  attr {
    key: "_output_shapes"
    value {
      list {
        shape {
          dim {
            size: 2
          }
        }
      }
    }
  }
  attr {
    key: "seed"
    value {
      i: 0
    }
  }
  attr {
    key: "seed2"
    value {
      i: 0
    }
  }
}
node {
  name: "parallel_read/filenames"
  op: "FIFOQueueV2"
  attr {
    key: "_output_shapes"
    value {
      list {
        shape {
        }
      }
    }
  }
  attr {
    key: "capacity"
    value {
      i: 32
    }
  }
  attr {
    key: "component_types"
    value {
      list {
        type: DT_STRING
      }
    }
  }
  attr {
    key: "container"
    value {
      s: ""
    }
  }
  attr {
    key: "shapes"
    value {
      list {
        shape {
        }
      }
    }
  }
  attr {
    key: "shared_name"
    value {
      s: ""
    }
  }
}
node {
  name: "parallel_read/filenames/filenames_EnqueueMany"
  op: "QueueEnqueueManyV2"
  input: "parallel_read/filenames"
  input: "parallel_read/filenames/RandomShuffle"
  attr {
    key: "Tcomponents"
    value {
      list {
        type: DT_STRING
      }
    }
  }
  attr {
    key: "timeout_ms"
    value {
      i: -1
    }
  }
}
node {
  name: "parallel_read/filenames/filenames_Close"
  op: "QueueCloseV2"
  input: "parallel_read/filenames"
  attr {
    key: "cancel_pending_enqueues"
    value {
      b: false
    }
  }
}
node {
  name: "parallel_read/filenames/filenames_Close_1"
  op: "QueueCloseV2"
  input: "parallel_read/filenames"
  attr {
    key: "cancel_pending_enqueues"
    value {
      b: true
    }
  }
}
node {
  name: "parallel_read/filenames/filenames_Size"
  op: "QueueSizeV2"
  input: "parallel_read/filenames"
  attr {
    key: "_output_shapes"
    value {
      list {
        shape {
        }
      }
    }
  }
}
node {
  name: "parallel_read/filenames/ToFloat"
  op: "Cast"
  input: "parallel_read/filenames/filenames_Size"
  attr {
    key: "DstT"
    value {
      type: DT_FLOAT
    }
  }
  attr {
    key: "SrcT"
    value {
      type: DT_INT32
    }
  }
  attr {
    key: "_output_shapes"
    value {
      list {
        shape {
        }
      }
    }
  }
}
node {
  name: "parallel_read/filenames/mul/y"
  op: "Const"
  attr {
    key: "_output_shapes"
    value {
      list {
        shape {
        }
      }
    }
  }
  attr {
    key: "dtype"
    value {
      type: DT_FLOAT
    }
  }
  attr {
    key: "value"
    value {
      tensor {
        dtype: DT_FLOAT
        tensor_shape {
        }
        float_val: 0.03125
      }
    }
  }
}
node {
  name: "parallel_read/filenames/mul"
  op: "Mul"
  input: "parallel_read/filenames/ToFloat"
  input: "parallel_read/filenames/mul/y"
  attr {
    key: "T"
    value {
      type: DT_FLOAT
    }
  }
  attr {
    key: "_output_shapes"
    value {
      list {
        shape {
        }
      }
    }
  }
}
node {
  name: "parallel_read/filenames/fraction_of_32_full/tags"
  op: "Const"
  attr {
    key: "_output_shapes"
    value {
      list {
        shape {
        }
      }
    }
  }
  attr {
    key: "dtype"
    value {
      type: DT_STRING
    }
  }
  attr {
    key: "value"
    value {
      tensor {
        dtype: DT_STRING
        tensor_shape {
        }
        string_val: "parallel_read/filenames/fraction_of_32_full"
      }
    }
  }
}
node {
  name: "parallel_read/filenames/fraction_of_32_full"
  op: "ScalarSummary"
  input: "parallel_read/filenames/fraction_of_32_full/tags"
  input: "parallel_read/filenames/mul"
  attr {
    key: "T"
    value {
      type: DT_FLOAT
    }
  }
  attr {
    key: "_output_shapes"
    value {
      list {
        shape {
        }
      }
    }
  }
}
node {
  name: "parallel_read/common_queue"
  op: "RandomShuffleQueueV2"
  attr {
    key: "_output_shapes"
    value {
      list {
        shape {
        }
      }
    }
  }
  attr {
    key: "capacity"
    value {
      i: 48
    }
  }
  attr {
    key: "component_types"
    value {
      list {
        type: DT_STRING
        type: DT_STRING
      }
    }
  }
  attr {
    key: "container"
    value {
      s: ""
    }
  }
  attr {
    key: "min_after_dequeue"
    value {
      i: 24
    }
  }
  attr {
    key: "seed"
    value {
      i: 0
    }
  }
  attr {
    key: "seed2"
    value {
      i: 0
    }
  }
  attr {
    key: "shapes"
    value {
      list {
      }
    }
  }
  attr {
    key: "shared_name"
    value {
      s: ""
    }
  }
}
node {
  name: "parallel_read/common_queue_Size"
  op: "QueueSizeV2"
  input: "parallel_read/common_queue"
  attr {
    key: "_output_shapes"
    value {
      list {
        shape {
        }
      }
    }
  }
}
node {
  name: "parallel_read/ToFloat"
  op: "Cast"
  input: "parallel_read/common_queue_Size"
  attr {
    key: "DstT"
    value {
      type: DT_FLOAT
    }
  }
  attr {
    key: "SrcT"
    value {
      type: DT_INT32
    }
  }
  attr {
    key: "_output_shapes"
    value {
      list {
        shape {
        }
      }
    }
  }
}
node {
  name: "parallel_read/mul/y"
  op: "Const"
  attr {
    key: "_output_shapes"
    value {
      list {
        shape {
        }
      }
    }
  }
  attr {
    key: "dtype"
    value {
      type: DT_FLOAT
    }
  }
  attr {
    key: "value"
    value {
      tensor {
        dtype: DT_FLOAT
        tensor_shape {
        }
        float_val: 0.02083333395421505
      }
    }
  }
}
node {
  name: "parallel_read/mul"
  op: "Mul"
  input: "parallel_read/ToFloat"
  input: "parallel_read/mul/y"
  attr {
    key: "T"
    value {
      type: DT_FLOAT
    }
  }
  attr {
    key: "_output_shapes"
    value {
      list {
        shape {
        }
      }
    }
  }
}
node {
  name: "parallel_read/fraction_of_48_full/tags"
  op: "Const"
  attr {
    key: "_output_shapes"
    value {
      list {
        shape {
        }
      }
    }
  }
  attr {
    key: "dtype"
    value {
      type: DT_STRING
    }
  }
  attr {
    key: "value"
    value {
      tensor {
        dtype: DT_STRING
        tensor_shape {
        }
        string_val: "parallel_read/fraction_of_48_full"
      }
    }
  }
}
node {
  name: "parallel_read/fraction_of_48_full"
  op: "ScalarSummary"
  input: "parallel_read/fraction_of_48_full/tags"
  input: "parallel_read/mul"
  attr {
    key: "T"
    value {
      type: DT_FLOAT
    }
  }
  attr {
    key: "_output_shapes"
    value {
      list {
        shape {
        }
      }
    }
  }
}
node {
  name: "parallel_read/TFRecordReaderV2"
  op: "TFRecordReaderV2"
  attr {
    key: "_output_shapes"
    value {
      list {
        shape {
        }
      }
    }
  }
  attr {
    key: "compression_type"
    value {
      s: ""
    }
  }
  attr {
    key: "container"
    value {
      s: ""
    }
  }
  attr {
    key: "shared_name"
    value {
      s: ""
    }
  }
}
node {
  name: "parallel_read/ReaderReadV2"
  op: "ReaderReadV2"
  input: "parallel_read/TFRecordReaderV2"
  input: "parallel_read/filenames"
  attr {
    key: "_output_shapes"
    value {
      list {
        shape {
        }
        shape {
        }
      }
    }
  }
}
node {
  name: "parallel_read/common_queue_enqueue"
  op: "QueueEnqueueV2"
  input: "parallel_read/common_queue"
  input: "parallel_read/ReaderReadV2"
  input: "parallel_read/ReaderReadV2:1"
  attr {
    key: "Tcomponents"
    value {
      list {
        type: DT_STRING
        type: DT_STRING
      }
    }
  }
  attr {
    key: "timeout_ms"
    value {
      i: -1
    }
  }
}
node {
  name: "parallel_read/common_queue_Close"
  op: "QueueCloseV2"
  input: "parallel_read/common_queue"
  attr {
    key: "cancel_pending_enqueues"
    value {
      b: false
    }
  }
}
node {
  name: "parallel_read/common_queue_Close_1"
  op: "QueueCloseV2"
  input: "parallel_read/common_queue"
  attr {
    key: "cancel_pending_enqueues"
    value {
      b: true
    }
  }
}
node {
  name: "parallel_read/common_queue_Dequeue"
  op: "QueueDequeueV2"
  input: "parallel_read/common_queue"
  attr {
    key: "_output_shapes"
    value {
      list {
        shape {
          unknown_rank: true
        }
        shape {
          unknown_rank: true
        }
      }
    }
  }
  attr {
    key: "component_types"
    value {
      list {
        type: DT_STRING
        type: DT_STRING
      }
    }
  }
  attr {
    key: "timeout_ms"
    value {
      i: -1
    }
  }
}
node {
  name: "ParseSingleExample/key_image/encoded"
  op: "Const"
  attr {
    key: "_output_shapes"
    value {
      list {
        shape {
        }
      }
    }
  }
  attr {
    key: "dtype"
    value {
      type: DT_STRING
    }
  }
  attr {
    key: "value"
    value {
      tensor {
        dtype: DT_STRING
        tensor_shape {
        }
        string_val: ""
      }
    }
  }
}
node {
  name: "ParseSingleExample/Reshape/shape"
  op: "Const"
  attr {
    key: "_output_shapes"
    value {
      list {
        shape {
          dim {
          }
        }
      }
    }
  }
  attr {
    key: "dtype"
    value {
      type: DT_INT32
    }
  }
  attr {
    key: "value"
    value {
      tensor {
        dtype: DT_INT32
        tensor_shape {
          dim {
          }
        }
      }
    }
  }
}
node {
  name: "ParseSingleExample/Reshape"
  op: "Reshape"
  input: "ParseSingleExample/key_image/encoded"
  input: "ParseSingleExample/Reshape/shape"
  attr {
    key: "T"
    value {
      type: DT_STRING
    }
  }
  attr {
    key: "Tshape"
    value {
      type: DT_INT32
    }
  }
  attr {
    key: "_output_shapes"
    value {
      list {
        shape {
        }
      }
    }
  }
}
node {
  name: "ParseSingleExample/key_image/format"
  op: "Const"
  attr {
    key: "_output_shapes"
    value {
      list {
        shape {
        }
      }
    }
  }
  attr {
    key: "dtype"
    value {
      type: DT_STRING
    }
  }
  attr {
    key: "value"
    value {
      tensor {
        dtype: DT_STRING
        tensor_shape {
        }
        string_val: "jpg"
      }
    }
  }
}
node {
  name: "ParseSingleExample/Reshape_1/shape"
  op: "Const"
  attr {
    key: "_output_shapes"
    value {
      list {
        shape {
          dim {
          }
        }
      }
    }
  }
  attr {
    key: "dtype"
    value {
      type: DT_INT32
    }
  }
  attr {
    key: "value"
    value {
      tensor {
        dtype: DT_INT32
        tensor_shape {
          dim {
          }
        }
      }
    }
  }
}
node {
  name: "ParseSingleExample/Reshape_1"
  op: "Reshape"
  input: "ParseSingleExample/key_image/format"
  input: "ParseSingleExample/Reshape_1/shape"
  attr {
    key: "T"
    value {
      type: DT_STRING
    }
  }
  attr {
    key: "Tshape"
    value {
      type: DT_INT32
    }
  }
  attr {
    key: "_output_shapes"
    value {
      list {
        shape {
        }
      }
    }
  }
}
node {
  name: "ParseSingleExample/ParseSingleExample"
  op: "ParseSingleExample"
  input: "parallel_read/common_queue_Dequeue:1"
  input: "zeros"
  input: "ParseSingleExample/Reshape"
  input: "ParseSingleExample/Reshape_1"
  attr {
    key: "Tdense"
    value {
      list {
        type: DT_INT64
        type: DT_STRING
        type: DT_STRING
      }
    }
  }
  attr {
    key: "_output_shapes"
    value {
      list {
        shape {
        }
        shape {
        }
        shape {
        }
      }
    }
  }
  attr {
    key: "dense_keys"
    value {
      list {
        s: "image/class/label"
        s: "image/encoded"
        s: "image/format"
      }
    }
  }
  attr {
    key: "dense_shapes"
    value {
      list {
        shape {
        }
        shape {
        }
        shape {
        }
      }
    }
  }
  attr {
    key: "num_sparse"
    value {
      i: 0
    }
  }
  attr {
    key: "sparse_keys"
    value {
      list {
      }
    }
  }
  attr {
    key: "sparse_types"
    value {
      list {
      }
    }
  }
}
node {
  name: "Reshape/shape"
  op: "Const"
  attr {
    key: "_output_shapes"
    value {
      list {
        shape {
          dim {
          }
        }
      }
    }
  }
  attr {
    key: "dtype"
    value {
      type: DT_INT32
    }
  }
  attr {
    key: "value"
    value {
      tensor {
        dtype: DT_INT32
        tensor_shape {
          dim {
          }
        }
      }
    }
  }
}
node {
  name: "Reshape"
  op: "Reshape"
  input: "ParseSingleExample/ParseSingleExample"
  input: "Reshape/shape"
  attr {
    key: "T"
    value {
      type: DT_INT64
    }
  }
  attr {
    key: "Tshape"
    value {
      type: DT_INT32
    }
  }
  attr {
    key: "_output_shapes"
    value {
      list {
        shape {
        }
      }
    }
  }
}
node {
  name: "Reshape_1/shape"
  op: "Const"
  attr {
    key: "_output_shapes"
    value {
      list {
        shape {
          dim {
          }
        }
      }
    }
  }
  attr {
    key: "dtype"
    value {
      type: DT_INT32
    }
  }
  attr {
    key: "value"
    value {
      tensor {
        dtype: DT_INT32
        tensor_shape {
          dim {
          }
        }
      }
    }
  }
}
node {
  name: "Reshape_1"
  op: "Reshape"
  input: "ParseSingleExample/ParseSingleExample:1"
  input: "Reshape_1/shape"
  attr {
    key: "T"
    value {
      type: DT_STRING
    }
  }
  attr {
    key: "Tshape"
    value {
      type: DT_INT32
    }
  }
  attr {
    key: "_output_shapes"
    value {
      list {
        shape {
        }
      }
    }
  }
}
node {
  name: "Reshape_2/shape"
  op: "Const"
  attr {
    key: "_output_shapes"
    value {
      list {
        shape {
          dim {
          }
        }
      }
    }
  }
  attr {
    key: "dtype"
    value {
      type: DT_INT32
    }
  }
  attr {
    key: "value"
    value {
      tensor {
        dtype: DT_INT32
        tensor_shape {
          dim {
          }
        }
      }
    }
  }
}
node {
  name: "Reshape_2"
  op: "Reshape"
  input: "ParseSingleExample/ParseSingleExample:2"
  input: "Reshape_2/shape"
  attr {
    key: "T"
    value {
      type: DT_STRING
    }
  }
  attr {
    key: "Tshape"
    value {
      type: DT_INT32
    }
  }
  attr {
    key: "_output_shapes"
    value {
      list {
        shape {
        }
      }
    }
  }
}
node {
  name: "Equal/y"
  op: "Const"
  attr {
    key: "_output_shapes"
    value {
      list {
        shape {
        }
      }
    }
  }
  attr {
    key: "dtype"
    value {
      type: DT_STRING
    }
  }
  attr {
    key: "value"
    value {
      tensor {
        dtype: DT_STRING
        tensor_shape {
        }
        string_val: "raw"
      }
    }
  }
}
node {
  name: "Equal"
  op: "Equal"
  input: "Reshape_2"
  input: "Equal/y"
  attr {
    key: "T"
    value {
      type: DT_STRING
    }
  }
  attr {
    key: "_output_shapes"
    value {
      list {
        shape {
        }
      }
    }
  }
}
node {
  name: "Equal_1/y"
  op: "Const"
  attr {
    key: "_output_shapes"
    value {
      list {
        shape {
        }
      }
    }
  }
  attr {
    key: "dtype"
    value {
      type: DT_STRING
    }
  }
  attr {
    key: "value"
    value {
      tensor {
        dtype: DT_STRING
        tensor_shape {
        }
        string_val: "RAW"
      }
    }
  }
}
node {
  name: "Equal_1"
  op: "Equal"
  input: "Reshape_2"
  input: "Equal_1/y"
  attr {
    key: "T"
    value {
      type: DT_STRING
    }
  }
  attr {
    key: "_output_shapes"
    value {
      list {
        shape {
        }
      }
    }
  }
}
node {
  name: "LogicalOr"
  op: "LogicalOr"
  input: "Equal"
  input: "Equal_1"
  attr {
    key: "_output_shapes"
    value {
      list {
        shape {
        }
      }
    }
  }
}
node {
  name: "case/preds_c"
  op: "Pack"
  input: "LogicalOr"
  attr {
    key: "N"
    value {
      i: 1
    }
  }
  attr {
    key: "T"
    value {
      type: DT_BOOL
    }
  }
  attr {
    key: "_output_shapes"
    value {
      list {
        shape {
          dim {
            size: 1
          }
        }
      }
    }
  }
  attr {
    key: "axis"
    value {
      i: 0
    }
  }
}
node {
  name: "case/Cast"
  op: "Cast"
  input: "case/preds_c"
  attr {
    key: "DstT"
    value {
      type: DT_INT32
    }
  }
  attr {
    key: "SrcT"
    value {
      type: DT_BOOL
    }
  }
  attr {
    key: "_output_shapes"
    value {
      list {
        shape {
          dim {
            size: 1
          }
        }
      }
    }
  }
}
node {
  name: "case/Const"
  op: "Const"
  attr {
    key: "_output_shapes"
    value {
      list {
        shape {
          dim {
            size: 1
          }
        }
      }
    }
  }
  attr {
    key: "dtype"
    value {
      type: DT_INT32
    }
  }
  attr {
    key: "value"
    value {
      tensor {
        dtype: DT_INT32
        tensor_shape {
          dim {
            size: 1
          }
        }
        int_val: 0
      }
    }
  }
}
node {
  name: "case/num_true_conds"
  op: "Sum"
  input: "case/Cast"
  input: "case/Const"
  attr {
    key: "T"
    value {
      type: DT_INT32
    }
  }
  attr {
    key: "Tidx"
    value {
      type: DT_INT32
    }
  }
  attr {
    key: "_output_shapes"
    value {
      list {
        shape {
        }
      }
    }
  }
  attr {
    key: "keep_dims"
    value {
      b: false
    }
  }
}
node {
  name: "case/n_true_conds"
  op: "Const"
  attr {
    key: "_output_shapes"
    value {
      list {
        shape {
        }
      }
    }
  }
  attr {
    key: "dtype"
    value {
      type: DT_INT32
    }
  }
  attr {
    key: "value"
    value {
      tensor {
        dtype: DT_INT32
        tensor_shape {
        }
        int_val: 1
      }
    }
  }
}
node {
  name: "case/LessEqual"
  op: "LessEqual"
  input: "case/num_true_conds"
  input: "case/n_true_conds"
  attr {
    key: "T"
    value {
      type: DT_INT32
    }
  }
  attr {
    key: "_output_shapes"
    value {
      list {
        shape {
        }
      }
    }
  }
}
node {
  name: "case/Assert/Const"
  op: "Const"
  attr {
    key: "_output_shapes"
    value {
      list {
        shape {
        }
      }
    }
  }
  attr {
    key: "dtype"
    value {
      type: DT_STRING
    }
  }
  attr {
    key: "value"
    value {
      tensor {
        dtype: DT_STRING
        tensor_shape {
        }
        string_val: "Input error: exclusive=True: more than 1 conditions (LogicalOr:0) evaluated as True:"
      }
    }
  }
}
node {
  name: "case/Assert/AssertGuard/Switch"
  op: "Switch"
  input: "case/LessEqual"
  input: "case/LessEqual"
  attr {
    key: "T"
    value {
      type: DT_BOOL
    }
  }
  attr {
    key: "_output_shapes"
    value {
      list {
        shape {
        }
        shape {
        }
      }
    }
  }
}
node {
  name: "case/Assert/AssertGuard/switch_t"
  op: "Identity"
  input: "case/Assert/AssertGuard/Switch:1"
  attr {
    key: "T"
    value {
      type: DT_BOOL
    }
  }
  attr {
    key: "_output_shapes"
    value {
      list {
        shape {
        }
      }
    }
  }
}
node {
  name: "case/Assert/AssertGuard/switch_f"
  op: "Identity"
  input: "case/Assert/AssertGuard/Switch"
  attr {
    key: "T"
    value {
      type: DT_BOOL
    }
  }
  attr {
    key: "_output_shapes"
    value {
      list {
        shape {
        }
      }
    }
  }
}
node {
  name: "case/Assert/AssertGuard/pred_id"
  op: "Identity"
  input: "case/LessEqual"
  attr {
    key: "T"
    value {
      type: DT_BOOL
    }
  }
  attr {
    key: "_output_shapes"
    value {
      list {
        shape {
        }
      }
    }
  }
}
node {
  name: "case/Assert/AssertGuard/NoOp"
  op: "NoOp"
  input: "^case/Assert/AssertGuard/switch_t"
}
node {
  name: "case/Assert/AssertGuard/control_dependency"
  op: "Identity"
  input: "case/Assert/AssertGuard/switch_t"
  input: "^case/Assert/AssertGuard/NoOp"
  attr {
    key: "T"
    value {
      type: DT_BOOL
    }
  }
  attr {
    key: "_class"
    value {
      list {
        s: "loc:@case/Assert/AssertGuard/switch_t"
      }
    }
  }
  attr {
    key: "_output_shapes"
    value {
      list {
        shape {
        }
      }
    }
  }
}
node {
  name: "case/Assert/AssertGuard/Assert/data_0"
  op: "Const"
  input: "^case/Assert/AssertGuard/switch_f"
  attr {
    key: "_output_shapes"
    value {
      list {
        shape {
        }
      }
    }
  }
  attr {
    key: "dtype"
    value {
      type: DT_STRING
    }
  }
  attr {
    key: "value"
    value {
      tensor {
        dtype: DT_STRING
        tensor_shape {
        }
        string_val: "Input error: exclusive=True: more than 1 conditions (LogicalOr:0) evaluated as True:"
      }
    }
  }
}
node {
  name: "case/Assert/AssertGuard/Assert"
  op: "Assert"
  input: "case/Assert/AssertGuard/Assert/Switch"
  input: "case/Assert/AssertGuard/Assert/data_0"
  input: "case/Assert/AssertGuard/Assert/Switch_1"
  attr {
    key: "T"
    value {
      list {
        type: DT_STRING
        type: DT_BOOL
      }
    }
  }
  attr {
    key: "summarize"
    value {
      i: 1
    }
  }
}
node {
  name: "case/Assert/AssertGuard/Assert/Switch"
  op: "Switch"
  input: "case/LessEqual"
  input: "case/Assert/AssertGuard/pred_id"
  attr {
    key: "T"
    value {
      type: DT_BOOL
    }
  }
  attr {
    key: "_class"
    value {
      list {
        s: "loc:@case/LessEqual"
      }
    }
  }
  attr {
    key: "_output_shapes"
    value {
      list {
        shape {
        }
        shape {
        }
      }
    }
  }
}
node {
  name: "case/Assert/AssertGuard/Assert/Switch_1"
  op: "Switch"
  input: "case/preds_c"
  input: "case/Assert/AssertGuard/pred_id"
  attr {
    key: "T"
    value {
      type: DT_BOOL
    }
  }
  attr {
    key: "_class"
    value {
      list {
        s: "loc:@case/preds_c"
      }
    }
  }
  attr {
    key: "_output_shapes"
    value {
      list {
        shape {
          dim {
            size: 1
          }
        }
        shape {
          dim {
            size: 1
          }
        }
      }
    }
  }
}
node {
  name: "case/Assert/AssertGuard/control_dependency_1"
  op: "Identity"
  input: "case/Assert/AssertGuard/switch_f"
  input: "^case/Assert/AssertGuard/Assert"
  attr {
    key: "T"
    value {
      type: DT_BOOL
    }
  }
  attr {
    key: "_class"
    value {
      list {
        s: "loc:@case/Assert/AssertGuard/switch_f"
      }
    }
  }
  attr {
    key: "_output_shapes"
    value {
      list {
        shape {
        }
      }
    }
  }
}
node {
  name: "case/Assert/AssertGuard/Merge"
  op: "Merge"
  input: "case/Assert/AssertGuard/control_dependency_1"
  input: "case/Assert/AssertGuard/control_dependency"
  attr {
    key: "N"
    value {
      i: 2
    }
  }
  attr {
    key: "T"
    value {
      type: DT_BOOL
    }
  }
  attr {
    key: "_output_shapes"
    value {
      list {
        shape {
        }
        shape {
        }
      }
    }
  }
}
node {
  name: "case/cond/Switch"
  op: "Switch"
  input: "LogicalOr"
  input: "LogicalOr"
  input: "^case/Assert/AssertGuard/Merge"
  attr {
    key: "T"
    value {
      type: DT_BOOL
    }
  }
  attr {
    key: "_output_shapes"
    value {
      list {
        shape {
        }
        shape {
        }
      }
    }
  }
}
node {
  name: "case/cond/switch_t"
  op: "Identity"
  input: "case/cond/Switch:1"
  attr {
    key: "T"
    value {
      type: DT_BOOL
    }
  }
  attr {
    key: "_output_shapes"
    value {
      list {
        shape {
        }
      }
    }
  }
}
node {
  name: "case/cond/switch_f"
  op: "Identity"
  input: "case/cond/Switch"
  attr {
    key: "T"
    value {
      type: DT_BOOL
    }
  }
  attr {
    key: "_output_shapes"
    value {
      list {
        shape {
        }
      }
    }
  }
}
node {
  name: "case/cond/pred_id"
  op: "Identity"
  input: "LogicalOr"
  input: "^case/Assert/AssertGuard/Merge"
  attr {
    key: "T"
    value {
      type: DT_BOOL
    }
  }
  attr {
    key: "_output_shapes"
    value {
      list {
        shape {
        }
      }
    }
  }
}
node {
  name: "case/cond/DecodeRaw"
  op: "DecodeRaw"
  input: "case/cond/DecodeRaw/Switch:1"
  input: "^case/Assert/AssertGuard/Merge"
  attr {
    key: "_output_shapes"
    value {
      list {
        shape {
          dim {
            size: -1
          }
        }
      }
    }
  }
  attr {
    key: "little_endian"
    value {
      b: true
    }
  }
  attr {
    key: "out_type"
    value {
      type: DT_UINT8
    }
  }
}
node {
  name: "case/cond/DecodeRaw/Switch"
  op: "Switch"
  input: "Reshape_1"
  input: "case/cond/pred_id"
  attr {
    key: "T"
    value {
      type: DT_STRING
    }
  }
  attr {
    key: "_class"
    value {
      list {
        s: "loc:@Reshape_1"
      }
    }
  }
  attr {
    key: "_output_shapes"
    value {
      list {
        shape {
        }
        shape {
        }
      }
    }
  }
}
node {
  name: "case/cond/is_jpeg/Substr/pos"
  op: "Const"
  input: "^case/Assert/AssertGuard/Merge"
  input: "^case/cond/switch_f"
  attr {
    key: "_output_shapes"
    value {
      list {
        shape {
        }
      }
    }
  }
  attr {
    key: "dtype"
    value {
      type: DT_INT32
    }
  }
  attr {
    key: "value"
    value {
      tensor {
        dtype: DT_INT32
        tensor_shape {
        }
        int_val: 0
      }
    }
  }
}
node {
  name: "case/cond/is_jpeg/Substr/len"
  op: "Const"
  input: "^case/Assert/AssertGuard/Merge"
  input: "^case/cond/switch_f"
  attr {
    key: "_output_shapes"
    value {
      list {
        shape {
        }
      }
    }
  }
  attr {
    key: "dtype"
    value {
      type: DT_INT32
    }
  }
  attr {
    key: "value"
    value {
      tensor {
        dtype: DT_INT32
        tensor_shape {
        }
        int_val: 3
      }
    }
  }
}
node {
  name: "case/cond/is_jpeg/Substr"
  op: "Substr"
  input: "case/cond/is_jpeg/Substr/Switch"
  input: "case/cond/is_jpeg/Substr/pos"
  input: "case/cond/is_jpeg/Substr/len"
  attr {
    key: "T"
    value {
      type: DT_INT32
    }
  }
  attr {
    key: "_output_shapes"
    value {
      list {
        shape {
        }
      }
    }
  }
}
node {
  name: "case/cond/is_jpeg/Substr/Switch"
  op: "Switch"
  input: "Reshape_1"
  input: "case/cond/pred_id"
  attr {
    key: "T"
    value {
      type: DT_STRING
    }
  }
  attr {
    key: "_class"
    value {
      list {
        s: "loc:@Reshape_1"
      }
    }
  }
  attr {
    key: "_output_shapes"
    value {
      list {
        shape {
        }
        shape {
        }
      }
    }
  }
}
node {
  name: "case/cond/is_jpeg/Equal/y"
  op: "Const"
  input: "^case/Assert/AssertGuard/Merge"
  input: "^case/cond/switch_f"
  attr {
    key: "_output_shapes"
    value {
      list {
        shape {
        }
      }
    }
  }
  attr {
    key: "dtype"
    value {
      type: DT_STRING
    }
  }
  attr {
    key: "value"
    value {
      tensor {
        dtype: DT_STRING
        tensor_shape {
        }
        string_val: "\377\330\377"
      }
    }
  }
}
node {
  name: "case/cond/is_jpeg/Equal"
  op: "Equal"
  input: "case/cond/is_jpeg/Substr"
  input: "case/cond/is_jpeg/Equal/y"
  attr {
    key: "T"
    value {
      type: DT_STRING
    }
  }
  attr {
    key: "_output_shapes"
    value {
      list {
        shape {
        }
      }
    }
  }
}
node {
  name: "case/cond/cond_jpeg/Switch"
  op: "Switch"
  input: "case/cond/is_jpeg/Equal"
  input: "case/cond/is_jpeg/Equal"
  attr {
    key: "T"
    value {
      type: DT_BOOL
    }
  }
  attr {
    key: "_output_shapes"
    value {
      list {
        shape {
        }
        shape {
        }
      }
    }
  }
}
node {
  name: "case/cond/cond_jpeg/switch_t"
  op: "Identity"
  input: "case/cond/cond_jpeg/Switch:1"
  attr {
    key: "T"
    value {
      type: DT_BOOL
    }
  }
  attr {
    key: "_output_shapes"
    value {
      list {
        shape {
        }
      }
    }
  }
}
node {
  name: "case/cond/cond_jpeg/switch_f"
  op: "Identity"
  input: "case/cond/cond_jpeg/Switch"
  attr {
    key: "T"
    value {
      type: DT_BOOL
    }
  }
  attr {
    key: "_output_shapes"
    value {
      list {
        shape {
        }
      }
    }
  }
}
node {
  name: "case/cond/cond_jpeg/pred_id"
  op: "Identity"
  input: "case/cond/is_jpeg/Equal"
  attr {
    key: "T"
    value {
      type: DT_BOOL
    }
  }
  attr {
    key: "_output_shapes"
    value {
      list {
        shape {
        }
      }
    }
  }
}
node {
  name: "case/cond/cond_jpeg/DecodeJpeg"
  op: "DecodeJpeg"
  input: "case/cond/cond_jpeg/DecodeJpeg/Switch:1"
  input: "^case/Assert/AssertGuard/Merge"
  attr {
    key: "_output_shapes"
    value {
      list {
        shape {
          dim {
            size: -1
          }
          dim {
            size: -1
          }
          dim {
            size: 3
          }
        }
      }
    }
  }
  attr {
    key: "acceptable_fraction"
    value {
      f: 1.0
    }
  }
  attr {
    key: "channels"
    value {
      i: 3
    }
  }
  attr {
    key: "dct_method"
    value {
      s: ""
    }
  }
  attr {
    key: "fancy_upscaling"
    value {
      b: true
    }
  }
  attr {
    key: "ratio"
    value {
      i: 1
    }
  }
  attr {
    key: "try_recover_truncated"
    value {
      b: false
    }
  }
}
node {
  name: "case/cond/cond_jpeg/DecodeJpeg/Switch"
  op: "Switch"
  input: "case/cond/is_jpeg/Substr/Switch"
  input: "case/cond/cond_jpeg/pred_id"
  attr {
    key: "T"
    value {
      type: DT_STRING
    }
  }
  attr {
    key: "_class"
    value {
      list {
        s: "loc:@Reshape_1"
      }
    }
  }
  attr {
    key: "_output_shapes"
    value {
      list {
        shape {
        }
        shape {
        }
      }
    }
  }
}
node {
  name: "case/cond/cond_jpeg/decode_image/Substr/pos"
  op: "Const"
  input: "^case/Assert/AssertGuard/Merge"
  input: "^case/cond/cond_jpeg/switch_f"
  attr {
    key: "_output_shapes"
    value {
      list {
        shape {
        }
      }
    }
  }
  attr {
    key: "dtype"
    value {
      type: DT_INT32
    }
  }
  attr {
    key: "value"
    value {
      tensor {
        dtype: DT_INT32
        tensor_shape {
        }
        int_val: 0
      }
    }
  }
}
node {
  name: "case/cond/cond_jpeg/decode_image/Substr/len"
  op: "Const"
  input: "^case/Assert/AssertGuard/Merge"
  input: "^case/cond/cond_jpeg/switch_f"
  attr {
    key: "_output_shapes"
    value {
      list {
        shape {
        }
      }
    }
  }
  attr {
    key: "dtype"
    value {
      type: DT_INT32
    }
  }
  attr {
    key: "value"
    value {
      tensor {
        dtype: DT_INT32
        tensor_shape {
        }
        int_val: 3
      }
    }
  }
}
node {
  name: "case/cond/cond_jpeg/decode_image/Substr"
  op: "Substr"
  input: "case/cond/cond_jpeg/decode_image/Substr/Switch"
  input: "case/cond/cond_jpeg/decode_image/Substr/pos"
  input: "case/cond/cond_jpeg/decode_image/Substr/len"
  attr {
    key: "T"
    value {
      type: DT_INT32
    }
  }
  attr {
    key: "_output_shapes"
    value {
      list {
        shape {
        }
      }
    }
  }
}
node {
  name: "case/cond/cond_jpeg/decode_image/Substr/Switch"
  op: "Switch"
  input: "case/cond/is_jpeg/Substr/Switch"
  input: "case/cond/cond_jpeg/pred_id"
  attr {
    key: "T"
    value {
      type: DT_STRING
    }
  }
  attr {
    key: "_class"
    value {
      list {
        s: "loc:@Reshape_1"
      }
    }
  }
  attr {
    key: "_output_shapes"
    value {
      list {
        shape {
        }
        shape {
        }
      }
    }
  }
}
node {
  name: "case/cond/cond_jpeg/decode_image/is_jpeg/Substr/pos"
  op: "Const"
  input: "^case/Assert/AssertGuard/Merge"
  input: "^case/cond/cond_jpeg/switch_f"
  attr {
    key: "_output_shapes"
    value {
      list {
        shape {
        }
      }
    }
  }
  attr {
    key: "dtype"
    value {
      type: DT_INT32
    }
  }
  attr {
    key: "value"
    value {
      tensor {
        dtype: DT_INT32
        tensor_shape {
        }
        int_val: 0
      }
    }
  }
}
node {
  name: "case/cond/cond_jpeg/decode_image/is_jpeg/Substr/len"
  op: "Const"
  input: "^case/Assert/AssertGuard/Merge"
  input: "^case/cond/cond_jpeg/switch_f"
  attr {
    key: "_output_shapes"
    value {
      list {
        shape {
        }
      }
    }
  }
  attr {
    key: "dtype"
    value {
      type: DT_INT32
    }
  }
  attr {
    key: "value"
    value {
      tensor {
        dtype: DT_INT32
        tensor_shape {
        }
        int_val: 3
      }
    }
  }
}
node {
  name: "case/cond/cond_jpeg/decode_image/is_jpeg/Substr"
  op: "Substr"
  input: "case/cond/cond_jpeg/decode_image/Substr/Switch"
  input: "case/cond/cond_jpeg/decode_image/is_jpeg/Substr/pos"
  input: "case/cond/cond_jpeg/decode_image/is_jpeg/Substr/len"
  attr {
    key: "T"
    value {
      type: DT_INT32
    }
  }
  attr {
    key: "_output_shapes"
    value {
      list {
        shape {
        }
      }
    }
  }
}
node {
  name: "case/cond/cond_jpeg/decode_image/is_jpeg/Equal/y"
  op: "Const"
  input: "^case/Assert/AssertGuard/Merge"
  input: "^case/cond/cond_jpeg/switch_f"
  attr {
    key: "_output_shapes"
    value {
      list {
        shape {
        }
      }
    }
  }
  attr {
    key: "dtype"
    value {
      type: DT_STRING
    }
  }
  attr {
    key: "value"
    value {
      tensor {
        dtype: DT_STRING
        tensor_shape {
        }
        string_val: "\377\330\377"
      }
    }
  }
}
node {
  name: "case/cond/cond_jpeg/decode_image/is_jpeg/Equal"
  op: "Equal"
  input: "case/cond/cond_jpeg/decode_image/is_jpeg/Substr"
  input: "case/cond/cond_jpeg/decode_image/is_jpeg/Equal/y"
  attr {
    key: "T"
    value {
      type: DT_STRING
    }
  }
  attr {
    key: "_output_shapes"
    value {
      list {
        shape {
        }
      }
    }
  }
}
node {
  name: "case/cond/cond_jpeg/decode_image/cond_jpeg/Switch"
  op: "Switch"
  input: "case/cond/cond_jpeg/decode_image/is_jpeg/Equal"
  input: "case/cond/cond_jpeg/decode_image/is_jpeg/Equal"
  attr {
    key: "T"
    value {
      type: DT_BOOL
    }
  }
  attr {
    key: "_output_shapes"
    value {
      list {
        shape {
        }
        shape {
        }
      }
    }
  }
}
node {
  name: "case/cond/cond_jpeg/decode_image/cond_jpeg/switch_t"
  op: "Identity"
  input: "case/cond/cond_jpeg/decode_image/cond_jpeg/Switch:1"
  attr {
    key: "T"
    value {
      type: DT_BOOL
    }
  }
  attr {
    key: "_output_shapes"
    value {
      list {
        shape {
        }
      }
    }
  }
}
node {
  name: "case/cond/cond_jpeg/decode_image/cond_jpeg/switch_f"
  op: "Identity"
  input: "case/cond/cond_jpeg/decode_image/cond_jpeg/Switch"
  attr {
    key: "T"
    value {
      type: DT_BOOL
    }
  }
  attr {
    key: "_output_shapes"
    value {
      list {
        shape {
        }
      }
    }
  }
}
node {
  name: "case/cond/cond_jpeg/decode_image/cond_jpeg/pred_id"
  op: "Identity"
  input: "case/cond/cond_jpeg/decode_image/is_jpeg/Equal"
  attr {
    key: "T"
    value {
      type: DT_BOOL
    }
  }
  attr {
    key: "_output_shapes"
    value {
      list {
        shape {
        }
      }
    }
  }
}
node {
  name: "case/cond/cond_jpeg/decode_image/cond_jpeg/check_jpeg_channels/x"
  op: "Const"
  input: "^case/Assert/AssertGuard/Merge"
  input: "^case/cond/cond_jpeg/decode_image/cond_jpeg/switch_t"
  attr {
    key: "_output_shapes"
    value {
      list {
        shape {
        }
      }
    }
  }
  attr {
    key: "dtype"
    value {
      type: DT_INT32
    }
  }
  attr {
    key: "value"
    value {
      tensor {
        dtype: DT_INT32
        tensor_shape {
        }
        int_val: 3
      }
    }
  }
}
node {
  name: "case/cond/cond_jpeg/decode_image/cond_jpeg/check_jpeg_channels/y"
  op: "Const"
  input: "^case/Assert/AssertGuard/Merge"
  input: "^case/cond/cond_jpeg/decode_image/cond_jpeg/switch_t"
  attr {
    key: "_output_shapes"
    value {
      list {
        shape {
        }
      }
    }
  }
  attr {
    key: "dtype"
    value {
      type: DT_INT32
    }
  }
  attr {
    key: "value"
    value {
      tensor {
        dtype: DT_INT32
        tensor_shape {
        }
        int_val: 4
      }
    }
  }
}
node {
  name: "case/cond/cond_jpeg/decode_image/cond_jpeg/check_jpeg_channels"
  op: "NotEqual"
  input: "case/cond/cond_jpeg/decode_image/cond_jpeg/check_jpeg_channels/x"
  input: "case/cond/cond_jpeg/decode_image/cond_jpeg/check_jpeg_channels/y"
  attr {
    key: "T"
    value {
      type: DT_INT32
    }
  }
  attr {
    key: "_output_shapes"
    value {
      list {
        shape {
        }
      }
    }
  }
}
node {
  name: "case/cond/cond_jpeg/decode_image/cond_jpeg/Assert/Const"
  op: "Const"
  input: "^case/Assert/AssertGuard/Merge"
  input: "^case/cond/cond_jpeg/decode_image/cond_jpeg/switch_t"
  attr {
    key: "_output_shapes"
    value {
      list {
        shape {
        }
      }
    }
  }
  attr {
    key: "dtype"
    value {
      type: DT_STRING
    }
  }
  attr {
    key: "value"
    value {
      tensor {
        dtype: DT_STRING
        tensor_shape {
        }
        string_val: "Channels must be in (None, 0, 1, 3) when decoding JPEG images"
      }
    }
  }
}
node {
  name: "case/cond/cond_jpeg/decode_image/cond_jpeg/Assert/Assert/data_0"
  op: "Const"
  input: "^case/Assert/AssertGuard/Merge"
  input: "^case/cond/cond_jpeg/decode_image/cond_jpeg/switch_t"
  attr {
    key: "_output_shapes"
    value {
      list {
        shape {
        }
      }
    }
  }
  attr {
    key: "dtype"
    value {
      type: DT_STRING
    }
  }
  attr {
    key: "value"
    value {
      tensor {
        dtype: DT_STRING
        tensor_shape {
        }
        string_val: "Channels must be in (None, 0, 1, 3) when decoding JPEG images"
      }
    }
  }
}
node {
  name: "case/cond/cond_jpeg/decode_image/cond_jpeg/Assert/Assert"
  op: "Assert"
  input: "case/cond/cond_jpeg/decode_image/cond_jpeg/check_jpeg_channels"
  input: "case/cond/cond_jpeg/decode_image/cond_jpeg/Assert/Assert/data_0"
  attr {
    key: "T"
    value {
      list {
        type: DT_STRING
      }
    }
  }
  attr {
    key: "summarize"
    value {
      i: 3
    }
  }
}
node {
  name: "case/cond/cond_jpeg/decode_image/cond_jpeg/DecodeJpeg"
  op: "DecodeJpeg"
  input: "case/cond/cond_jpeg/decode_image/cond_jpeg/DecodeJpeg/Switch:1"
  input: "^case/Assert/AssertGuard/Merge"
  input: "^case/cond/cond_jpeg/decode_image/cond_jpeg/Assert/Assert"
  attr {
    key: "_output_shapes"
    value {
      list {
        shape {
          dim {
            size: -1
          }
          dim {
            size: -1
          }
          dim {
            size: 3
          }
        }
      }
    }
  }
  attr {
    key: "acceptable_fraction"
    value {
      f: 1.0
    }
  }
  attr {
    key: "channels"
    value {
      i: 3
    }
  }
  attr {
    key: "dct_method"
    value {
      s: ""
    }
  }
  attr {
    key: "fancy_upscaling"
    value {
      b: true
    }
  }
  attr {
    key: "ratio"
    value {
      i: 1
    }
  }
  attr {
    key: "try_recover_truncated"
    value {
      b: false
    }
  }
}
node {
  name: "case/cond/cond_jpeg/decode_image/cond_jpeg/DecodeJpeg/Switch"
  op: "Switch"
  input: "case/cond/cond_jpeg/decode_image/Substr/Switch"
  input: "case/cond/cond_jpeg/decode_image/cond_jpeg/pred_id"
  attr {
    key: "T"
    value {
      type: DT_STRING
    }
  }
  attr {
    key: "_class"
    value {
      list {
        s: "loc:@Reshape_1"
      }
    }
  }
  attr {
    key: "_output_shapes"
    value {
      list {
        shape {
        }
        shape {
        }
      }
    }
  }
}
node {
  name: "case/cond/cond_jpeg/decode_image/cond_jpeg/is_png/y"
  op: "Const"
  input: "^case/Assert/AssertGuard/Merge"
  input: "^case/cond/cond_jpeg/decode_image/cond_jpeg/switch_f"
  attr {
    key: "_output_shapes"
    value {
      list {
        shape {
        }
      }
    }
  }
  attr {
    key: "dtype"
    value {
      type: DT_STRING
    }
  }
  attr {
    key: "value"
    value {
      tensor {
        dtype: DT_STRING
        tensor_shape {
        }
        string_val: "\211PN"
      }
    }
  }
}
node {
  name: "case/cond/cond_jpeg/decode_image/cond_jpeg/is_png"
  op: "Equal"
  input: "case/cond/cond_jpeg/decode_image/cond_jpeg/is_png/Switch"
  input: "case/cond/cond_jpeg/decode_image/cond_jpeg/is_png/y"
  attr {
    key: "T"
    value {
      type: DT_STRING
    }
  }
  attr {
    key: "_output_shapes"
    value {
      list {
        shape {
        }
      }
    }
  }
}
node {
  name: "case/cond/cond_jpeg/decode_image/cond_jpeg/is_png/Switch"
  op: "Switch"
  input: "case/cond/cond_jpeg/decode_image/Substr"
  input: "case/cond/cond_jpeg/decode_image/cond_jpeg/pred_id"
  attr {
    key: "T"
    value {
      type: DT_STRING
    }
  }
  attr {
    key: "_class"
    value {
      list {
        s: "loc:@case/cond/cond_jpeg/decode_image/Substr"
      }
    }
  }
  attr {
    key: "_output_shapes"
    value {
      list {
        shape {
        }
        shape {
        }
      }
    }
  }
}
node {
  name: "case/cond/cond_jpeg/decode_image/cond_jpeg/cond_png/Switch"
  op: "Switch"
  input: "case/cond/cond_jpeg/decode_image/cond_jpeg/is_png"
  input: "case/cond/cond_jpeg/decode_image/cond_jpeg/is_png"
  attr {
    key: "T"
    value {
      type: DT_BOOL
    }
  }
  attr {
    key: "_output_shapes"
    value {
      list {
        shape {
        }
        shape {
        }
      }
    }
  }
}
node {
  name: "case/cond/cond_jpeg/decode_image/cond_jpeg/cond_png/switch_t"
  op: "Identity"
  input: "case/cond/cond_jpeg/decode_image/cond_jpeg/cond_png/Switch:1"
  attr {
    key: "T"
    value {
      type: DT_BOOL
    }
  }
  attr {
    key: "_output_shapes"
    value {
      list {
        shape {
        }
      }
    }
  }
}
node {
  name: "case/cond/cond_jpeg/decode_image/cond_jpeg/cond_png/switch_f"
  op: "Identity"
  input: "case/cond/cond_jpeg/decode_image/cond_jpeg/cond_png/Switch"
  attr {
    key: "T"
    value {
      type: DT_BOOL
    }
  }
  attr {
    key: "_output_shapes"
    value {
      list {
        shape {
        }
      }
    }
  }
}
node {
  name: "case/cond/cond_jpeg/decode_image/cond_jpeg/cond_png/pred_id"
  op: "Identity"
  input: "case/cond/cond_jpeg/decode_image/cond_jpeg/is_png"
  attr {
    key: "T"
    value {
      type: DT_BOOL
    }
  }
  attr {
    key: "_output_shapes"
    value {
      list {
        shape {
        }
      }
    }
  }
}
node {
  name: "case/cond/cond_jpeg/decode_image/cond_jpeg/cond_png/DecodePng"
  op: "DecodePng"
  input: "case/cond/cond_jpeg/decode_image/cond_jpeg/cond_png/DecodePng/Switch_1:1"
  input: "^case/Assert/AssertGuard/Merge"
  attr {
    key: "_output_shapes"
    value {
      list {
        shape {
          dim {
            size: -1
          }
          dim {
            size: -1
          }
          dim {
            size: 3
          }
        }
      }
    }
  }
  attr {
    key: "channels"
    value {
      i: 3
    }
  }
  attr {
    key: "dtype"
    value {
      type: DT_UINT8
    }
  }
}
node {
  name: "case/cond/cond_jpeg/decode_image/cond_jpeg/cond_png/DecodePng/Switch"
  op: "Switch"
  input: "case/cond/cond_jpeg/decode_image/Substr/Switch"
  input: "case/cond/cond_jpeg/decode_image/cond_jpeg/pred_id"
  attr {
    key: "T"
    value {
      type: DT_STRING
    }
  }
  attr {
    key: "_class"
    value {
      list {
        s: "loc:@Reshape_1"
      }
    }
  }
  attr {
    key: "_output_shapes"
    value {
      list {
        shape {
        }
        shape {
        }
      }
    }
  }
}
node {
  name: "case/cond/cond_jpeg/decode_image/cond_jpeg/cond_png/DecodePng/Switch_1"
  op: "Switch"
  input: "case/cond/cond_jpeg/decode_image/cond_jpeg/cond_png/DecodePng/Switch"
  input: "case/cond/cond_jpeg/decode_image/cond_jpeg/cond_png/pred_id"
  attr {
    key: "T"
    value {
      type: DT_STRING
    }
  }
  attr {
    key: "_class"
    value {
      list {
        s: "loc:@Reshape_1"
      }
    }
  }
  attr {
    key: "_output_shapes"
    value {
      list {
        shape {
        }
        shape {
        }
      }
    }
  }
}
node {
  name: "case/cond/cond_jpeg/decode_image/cond_jpeg/cond_png/is_gif/y"
  op: "Const"
  input: "^case/Assert/AssertGuard/Merge"
  input: "^case/cond/cond_jpeg/decode_image/cond_jpeg/cond_png/switch_f"
  attr {
    key: "_output_shapes"
    value {
      list {
        shape {
        }
      }
    }
  }
  attr {
    key: "dtype"
    value {
      type: DT_STRING
    }
  }
  attr {
    key: "value"
    value {
      tensor {
        dtype: DT_STRING
        tensor_shape {
        }
        string_val: "GIF"
      }
    }
  }
}
node {
  name: "case/cond/cond_jpeg/decode_image/cond_jpeg/cond_png/is_gif"
  op: "Equal"
  input: "case/cond/cond_jpeg/decode_image/cond_jpeg/cond_png/is_gif/Switch"
  input: "case/cond/cond_jpeg/decode_image/cond_jpeg/cond_png/is_gif/y"
  attr {
    key: "T"
    value {
      type: DT_STRING
    }
  }
  attr {
    key: "_output_shapes"
    value {
      list {
        shape {
        }
      }
    }
  }
}
node {
  name: "case/cond/cond_jpeg/decode_image/cond_jpeg/cond_png/is_gif/Switch"
  op: "Switch"
  input: "case/cond/cond_jpeg/decode_image/cond_jpeg/is_png/Switch"
  input: "case/cond/cond_jpeg/decode_image/cond_jpeg/cond_png/pred_id"
  attr {
    key: "T"
    value {
      type: DT_STRING
    }
  }
  attr {
    key: "_class"
    value {
      list {
        s: "loc:@case/cond/cond_jpeg/decode_image/Substr"
      }
    }
  }
  attr {
    key: "_output_shapes"
    value {
      list {
        shape {
        }
        shape {
        }
      }
    }
  }
}
node {
  name: "case/cond/cond_jpeg/decode_image/cond_jpeg/cond_png/cond_gif/Switch"
  op: "Switch"
  input: "case/cond/cond_jpeg/decode_image/cond_jpeg/cond_png/is_gif"
  input: "case/cond/cond_jpeg/decode_image/cond_jpeg/cond_png/is_gif"
  attr {
    key: "T"
    value {
      type: DT_BOOL
    }
  }
  attr {
    key: "_output_shapes"
    value {
      list {
        shape {
        }
        shape {
        }
      }
    }
  }
}
node {
  name: "case/cond/cond_jpeg/decode_image/cond_jpeg/cond_png/cond_gif/switch_t"
  op: "Identity"
  input: "case/cond/cond_jpeg/decode_image/cond_jpeg/cond_png/cond_gif/Switch:1"
  attr {
    key: "T"
    value {
      type: DT_BOOL
    }
  }
  attr {
    key: "_output_shapes"
    value {
      list {
        shape {
        }
      }
    }
  }
}
node {
  name: "case/cond/cond_jpeg/decode_image/cond_jpeg/cond_png/cond_gif/switch_f"
  op: "Identity"
  input: "case/cond/cond_jpeg/decode_image/cond_jpeg/cond_png/cond_gif/Switch"
  attr {
    key: "T"
    value {
      type: DT_BOOL
    }
  }
  attr {
    key: "_output_shapes"
    value {
      list {
        shape {
        }
      }
    }
  }
}
node {
  name: "case/cond/cond_jpeg/decode_image/cond_jpeg/cond_png/cond_gif/pred_id"
  op: "Identity"
  input: "case/cond/cond_jpeg/decode_image/cond_jpeg/cond_png/is_gif"
  attr {
    key: "T"
    value {
      type: DT_BOOL
    }
  }
  attr {
    key: "_output_shapes"
    value {
      list {
        shape {
        }
      }
    }
  }
}
node {
  name: "case/cond/cond_jpeg/decode_image/cond_jpeg/cond_png/cond_gif/check_gif_channels/x"
  op: "Const"
  input: "^case/Assert/AssertGuard/Merge"
  input: "^case/cond/cond_jpeg/decode_image/cond_jpeg/cond_png/cond_gif/switch_t"
  attr {
    key: "_output_shapes"
    value {
      list {
        shape {
        }
      }
    }
  }
  attr {
    key: "dtype"
    value {
      type: DT_INT32
    }
  }
  attr {
    key: "value"
    value {
      tensor {
        dtype: DT_INT32
        tensor_shape {
        }
        int_val: 3
      }
    }
  }
}
node {
  name: "case/cond/cond_jpeg/decode_image/cond_jpeg/cond_png/cond_gif/check_gif_channels/y"
  op: "Const"
  input: "^case/Assert/AssertGuard/Merge"
  input: "^case/cond/cond_jpeg/decode_image/cond_jpeg/cond_png/cond_gif/switch_t"
  attr {
    key: "_output_shapes"
    value {
      list {
        shape {
        }
      }
    }
  }
  attr {
    key: "dtype"
    value {
      type: DT_INT32
    }
  }
  attr {
    key: "value"
    value {
      tensor {
        dtype: DT_INT32
        tensor_shape {
        }
        int_val: 1
      }
    }
  }
}
node {
  name: "case/cond/cond_jpeg/decode_image/cond_jpeg/cond_png/cond_gif/check_gif_channels"
  op: "NotEqual"
  input: "case/cond/cond_jpeg/decode_image/cond_jpeg/cond_png/cond_gif/check_gif_channels/x"
  input: "case/cond/cond_jpeg/decode_image/cond_jpeg/cond_png/cond_gif/check_gif_channels/y"
  attr {
    key: "T"
    value {
      type: DT_INT32
    }
  }
  attr {
    key: "_output_shapes"
    value {
      list {
        shape {
        }
      }
    }
  }
}
node {
  name: "case/cond/cond_jpeg/decode_image/cond_jpeg/cond_png/cond_gif/check_gif_channels_1/x"
  op: "Const"
  input: "^case/Assert/AssertGuard/Merge"
  input: "^case/cond/cond_jpeg/decode_image/cond_jpeg/cond_png/cond_gif/switch_t"
  attr {
    key: "_output_shapes"
    value {
      list {
        shape {
        }
      }
    }
  }
  attr {
    key: "dtype"
    value {
      type: DT_INT32
    }
  }
  attr {
    key: "value"
    value {
      tensor {
        dtype: DT_INT32
        tensor_shape {
        }
        int_val: 3
      }
    }
  }
}
node {
  name: "case/cond/cond_jpeg/decode_image/cond_jpeg/cond_png/cond_gif/check_gif_channels_1/y"
  op: "Const"
  input: "^case/Assert/AssertGuard/Merge"
  input: "^case/cond/cond_jpeg/decode_image/cond_jpeg/cond_png/cond_gif/switch_t"
  attr {
    key: "_output_shapes"
    value {
      list {
        shape {
        }
      }
    }
  }
  attr {
    key: "dtype"
    value {
      type: DT_INT32
    }
  }
  attr {
    key: "value"
    value {
      tensor {
        dtype: DT_INT32
        tensor_shape {
        }
        int_val: 4
      }
    }
  }
}
node {
  name: "case/cond/cond_jpeg/decode_image/cond_jpeg/cond_png/cond_gif/check_gif_channels_1"
  op: "NotEqual"
  input: "case/cond/cond_jpeg/decode_image/cond_jpeg/cond_png/cond_gif/check_gif_channels_1/x"
  input: "case/cond/cond_jpeg/decode_image/cond_jpeg/cond_png/cond_gif/check_gif_channels_1/y"
  attr {
    key: "T"
    value {
      type: DT_INT32
    }
  }
  attr {
    key: "_output_shapes"
    value {
      list {
        shape {
        }
      }
    }
  }
}
node {
  name: "case/cond/cond_jpeg/decode_image/cond_jpeg/cond_png/cond_gif/LogicalAnd"
  op: "LogicalAnd"
  input: "case/cond/cond_jpeg/decode_image/cond_jpeg/cond_png/cond_gif/check_gif_channels"
  input: "case/cond/cond_jpeg/decode_image/cond_jpeg/cond_png/cond_gif/check_gif_channels_1"
  attr {
    key: "_output_shapes"
    value {
      list {
        shape {
        }
      }
    }
  }
}
node {
  name: "case/cond/cond_jpeg/decode_image/cond_jpeg/cond_png/cond_gif/Assert/Const"
  op: "Const"
  input: "^case/Assert/AssertGuard/Merge"
  input: "^case/cond/cond_jpeg/decode_image/cond_jpeg/cond_png/cond_gif/switch_t"
  attr {
    key: "_output_shapes"
    value {
      list {
        shape {
        }
      }
    }
  }
  attr {
    key: "dtype"
    value {
      type: DT_STRING
    }
  }
  attr {
    key: "value"
    value {
      tensor {
        dtype: DT_STRING
        tensor_shape {
        }
        string_val: "Channels must be in (None, 0, 3) when decoding GIF images"
      }
    }
  }
}
node {
  name: "case/cond/cond_jpeg/decode_image/cond_jpeg/cond_png/cond_gif/Assert/Assert/data_0"
  op: "Const"
  input: "^case/Assert/AssertGuard/Merge"
  input: "^case/cond/cond_jpeg/decode_image/cond_jpeg/cond_png/cond_gif/switch_t"
  attr {
    key: "_output_shapes"
    value {
      list {
        shape {
        }
      }
    }
  }
  attr {
    key: "dtype"
    value {
      type: DT_STRING
    }
  }
  attr {
    key: "value"
    value {
      tensor {
        dtype: DT_STRING
        tensor_shape {
        }
        string_val: "Channels must be in (None, 0, 3) when decoding GIF images"
      }
    }
  }
}
node {
  name: "case/cond/cond_jpeg/decode_image/cond_jpeg/cond_png/cond_gif/Assert/Assert"
  op: "Assert"
  input: "case/cond/cond_jpeg/decode_image/cond_jpeg/cond_png/cond_gif/LogicalAnd"
  input: "case/cond/cond_jpeg/decode_image/cond_jpeg/cond_png/cond_gif/Assert/Assert/data_0"
  attr {
    key: "T"
    value {
      list {
        type: DT_STRING
      }
    }
  }
  attr {
    key: "summarize"
    value {
      i: 3
    }
  }
}
node {
  name: "case/cond/cond_jpeg/decode_image/cond_jpeg/cond_png/cond_gif/DecodeGif"
  op: "DecodeGif"
  input: "case/cond/cond_jpeg/decode_image/cond_jpeg/cond_png/cond_gif/DecodeGif/Switch_1:1"
  input: "^case/Assert/AssertGuard/Merge"
  input: "^case/cond/cond_jpeg/decode_image/cond_jpeg/cond_png/cond_gif/Assert/Assert"
  attr {
    key: "_output_shapes"
    value {
      list {
        shape {
          dim {
            size: -1
          }
          dim {
            size: -1
          }
          dim {
            size: -1
          }
          dim {
            size: 3
          }
        }
      }
    }
  }
}
node {
  name: "case/cond/cond_jpeg/decode_image/cond_jpeg/cond_png/cond_gif/DecodeGif/Switch"
  op: "Switch"
  input: "case/cond/cond_jpeg/decode_image/cond_jpeg/cond_png/DecodePng/Switch"
  input: "case/cond/cond_jpeg/decode_image/cond_jpeg/cond_png/pred_id"
  attr {
    key: "T"
    value {
      type: DT_STRING
    }
  }
  attr {
    key: "_class"
    value {
      list {
        s: "loc:@Reshape_1"
      }
    }
  }
  attr {
    key: "_output_shapes"
    value {
      list {
        shape {
        }
        shape {
        }
      }
    }
  }
}
node {
  name: "case/cond/cond_jpeg/decode_image/cond_jpeg/cond_png/cond_gif/DecodeGif/Switch_1"
  op: "Switch"
  input: "case/cond/cond_jpeg/decode_image/cond_jpeg/cond_png/cond_gif/DecodeGif/Switch"
  input: "case/cond/cond_jpeg/decode_image/cond_jpeg/cond_png/cond_gif/pred_id"
  attr {
    key: "T"
    value {
      type: DT_STRING
    }
  }
  attr {
    key: "_class"
    value {
      list {
        s: "loc:@Reshape_1"
      }
    }
  }
  attr {
    key: "_output_shapes"
    value {
      list {
        shape {
        }
        shape {
        }
      }
    }
  }
}
node {
  name: "case/cond/cond_jpeg/decode_image/cond_jpeg/cond_png/cond_gif/Substr/pos"
  op: "Const"
  input: "^case/Assert/AssertGuard/Merge"
  input: "^case/cond/cond_jpeg/decode_image/cond_jpeg/cond_png/cond_gif/switch_f"
  attr {
    key: "_output_shapes"
    value {
      list {
        shape {
        }
      }
    }
  }
  attr {
    key: "dtype"
    value {
      type: DT_INT32
    }
  }
  attr {
    key: "value"
    value {
      tensor {
        dtype: DT_INT32
        tensor_shape {
        }
        int_val: 0
      }
    }
  }
}
node {
  name: "case/cond/cond_jpeg/decode_image/cond_jpeg/cond_png/cond_gif/Substr/len"
  op: "Const"
  input: "^case/Assert/AssertGuard/Merge"
  input: "^case/cond/cond_jpeg/decode_image/cond_jpeg/cond_png/cond_gif/switch_f"
  attr {
    key: "_output_shapes"
    value {
      list {
        shape {
        }
      }
    }
  }
  attr {
    key: "dtype"
    value {
      type: DT_INT32
    }
  }
  attr {
    key: "value"
    value {
      tensor {
        dtype: DT_INT32
        tensor_shape {
        }
        int_val: 2
      }
    }
  }
}
node {
  name: "case/cond/cond_jpeg/decode_image/cond_jpeg/cond_png/cond_gif/Substr"
  op: "Substr"
  input: "case/cond/cond_jpeg/decode_image/cond_jpeg/cond_png/cond_gif/Substr/Switch"
  input: "case/cond/cond_jpeg/decode_image/cond_jpeg/cond_png/cond_gif/Substr/pos"
  input: "case/cond/cond_jpeg/decode_image/cond_jpeg/cond_png/cond_gif/Substr/len"
  attr {
    key: "T"
    value {
      type: DT_INT32
    }
  }
  attr {
    key: "_output_shapes"
    value {
      list {
        shape {
        }
      }
    }
  }
}
node {
  name: "case/cond/cond_jpeg/decode_image/cond_jpeg/cond_png/cond_gif/Substr/Switch"
  op: "Switch"
  input: "case/cond/cond_jpeg/decode_image/cond_jpeg/cond_png/cond_gif/DecodeGif/Switch"
  input: "case/cond/cond_jpeg/decode_image/cond_jpeg/cond_png/cond_gif/pred_id"
  attr {
    key: "T"
    value {
      type: DT_STRING
    }
  }
  attr {
    key: "_class"
    value {
      list {
        s: "loc:@Reshape_1"
      }
    }
  }
  attr {
    key: "_output_shapes"
    value {
      list {
        shape {
        }
        shape {
        }
      }
    }
  }
}
node {
  name: "case/cond/cond_jpeg/decode_image/cond_jpeg/cond_png/cond_gif/is_bmp/y"
  op: "Const"
  input: "^case/Assert/AssertGuard/Merge"
  input: "^case/cond/cond_jpeg/decode_image/cond_jpeg/cond_png/cond_gif/switch_f"
  attr {
    key: "_output_shapes"
    value {
      list {
        shape {
        }
      }
    }
  }
  attr {
    key: "dtype"
    value {
      type: DT_STRING
    }
  }
  attr {
    key: "value"
    value {
      tensor {
        dtype: DT_STRING
        tensor_shape {
        }
        string_val: "BM"
      }
    }
  }
}
node {
  name: "case/cond/cond_jpeg/decode_image/cond_jpeg/cond_png/cond_gif/is_bmp"
  op: "Equal"
  input: "case/cond/cond_jpeg/decode_image/cond_jpeg/cond_png/cond_gif/Substr"
  input: "case/cond/cond_jpeg/decode_image/cond_jpeg/cond_png/cond_gif/is_bmp/y"
  attr {
    key: "T"
    value {
      type: DT_STRING
    }
  }
  attr {
    key: "_output_shapes"
    value {
      list {
        shape {
        }
      }
    }
  }
}
node {
  name: "case/cond/cond_jpeg/decode_image/cond_jpeg/cond_png/cond_gif/Assert_1/Const"
  op: "Const"
  input: "^case/Assert/AssertGuard/Merge"
  input: "^case/cond/cond_jpeg/decode_image/cond_jpeg/cond_png/cond_gif/switch_f"
  attr {
    key: "_output_shapes"
    value {
      list {
        shape {
        }
      }
    }
  }
  attr {
    key: "dtype"
    value {
      type: DT_STRING
    }
  }
  attr {
    key: "value"
    value {
      tensor {
        dtype: DT_STRING
        tensor_shape {
        }
        string_val: "Unable to decode bytes as JPEG, PNG, GIF, or BMP"
      }
    }
  }
}
node {
  name: "case/cond/cond_jpeg/decode_image/cond_jpeg/cond_png/cond_gif/Assert_1/Assert/data_0"
  op: "Const"
  input: "^case/Assert/AssertGuard/Merge"
  input: "^case/cond/cond_jpeg/decode_image/cond_jpeg/cond_png/cond_gif/switch_f"
  attr {
    key: "_output_shapes"
    value {
      list {
        shape {
        }
      }
    }
  }
  attr {
    key: "dtype"
    value {
      type: DT_STRING
    }
  }
  attr {
    key: "value"
    value {
      tensor {
        dtype: DT_STRING
        tensor_shape {
        }
        string_val: "Unable to decode bytes as JPEG, PNG, GIF, or BMP"
      }
    }
  }
}
node {
  name: "case/cond/cond_jpeg/decode_image/cond_jpeg/cond_png/cond_gif/Assert_1/Assert"
  op: "Assert"
  input: "case/cond/cond_jpeg/decode_image/cond_jpeg/cond_png/cond_gif/is_bmp"
  input: "case/cond/cond_jpeg/decode_image/cond_jpeg/cond_png/cond_gif/Assert_1/Assert/data_0"
  attr {
    key: "T"
    value {
      list {
        type: DT_STRING
      }
    }
  }
  attr {
    key: "summarize"
    value {
      i: 3
    }
  }
}
node {
  name: "case/cond/cond_jpeg/decode_image/cond_jpeg/cond_png/cond_gif/check_channels/x"
  op: "Const"
  input: "^case/Assert/AssertGuard/Merge"
  input: "^case/cond/cond_jpeg/decode_image/cond_jpeg/cond_png/cond_gif/switch_f"
  attr {
    key: "_output_shapes"
    value {
      list {
        shape {
        }
      }
    }
  }
  attr {
    key: "dtype"
    value {
      type: DT_INT32
    }
  }
  attr {
    key: "value"
    value {
      tensor {
        dtype: DT_INT32
        tensor_shape {
        }
        int_val: 3
      }
    }
  }
}
node {
  name: "case/cond/cond_jpeg/decode_image/cond_jpeg/cond_png/cond_gif/check_channels/y"
  op: "Const"
  input: "^case/Assert/AssertGuard/Merge"
  input: "^case/cond/cond_jpeg/decode_image/cond_jpeg/cond_png/cond_gif/switch_f"
  attr {
    key: "_output_shapes"
    value {
      list {
        shape {
        }
      }
    }
  }
  attr {
    key: "dtype"
    value {
      type: DT_INT32
    }
  }
  attr {
    key: "value"
    value {
      tensor {
        dtype: DT_INT32
        tensor_shape {
        }
        int_val: 1
      }
    }
  }
}
node {
  name: "case/cond/cond_jpeg/decode_image/cond_jpeg/cond_png/cond_gif/check_channels"
  op: "NotEqual"
  input: "case/cond/cond_jpeg/decode_image/cond_jpeg/cond_png/cond_gif/check_channels/x"
  input: "case/cond/cond_jpeg/decode_image/cond_jpeg/cond_png/cond_gif/check_channels/y"
  attr {
    key: "T"
    value {
      type: DT_INT32
    }
  }
  attr {
    key: "_output_shapes"
    value {
      list {
        shape {
        }
      }
    }
  }
}
node {
  name: "case/cond/cond_jpeg/decode_image/cond_jpeg/cond_png/cond_gif/Assert_2/Const"
  op: "Const"
  input: "^case/Assert/AssertGuard/Merge"
  input: "^case/cond/cond_jpeg/decode_image/cond_jpeg/cond_png/cond_gif/switch_f"
  attr {
    key: "_output_shapes"
    value {
      list {
        shape {
        }
      }
    }
  }
  attr {
    key: "dtype"
    value {
      type: DT_STRING
    }
  }
  attr {
    key: "value"
    value {
      tensor {
        dtype: DT_STRING
        tensor_shape {
        }
        string_val: "Channels must be in (None, 0, 3) when decoding BMP images"
      }
    }
  }
}
node {
  name: "case/cond/cond_jpeg/decode_image/cond_jpeg/cond_png/cond_gif/Assert_2/Assert/data_0"
  op: "Const"
  input: "^case/Assert/AssertGuard/Merge"
  input: "^case/cond/cond_jpeg/decode_image/cond_jpeg/cond_png/cond_gif/switch_f"
  attr {
    key: "_output_shapes"
    value {
      list {
        shape {
        }
      }
    }
  }
  attr {
    key: "dtype"
    value {
      type: DT_STRING
    }
  }
  attr {
    key: "value"
    value {
      tensor {
        dtype: DT_STRING
        tensor_shape {
        }
        string_val: "Channels must be in (None, 0, 3) when decoding BMP images"
      }
    }
  }
}
node {
  name: "case/cond/cond_jpeg/decode_image/cond_jpeg/cond_png/cond_gif/Assert_2/Assert"
  op: "Assert"
  input: "case/cond/cond_jpeg/decode_image/cond_jpeg/cond_png/cond_gif/check_channels"
  input: "case/cond/cond_jpeg/decode_image/cond_jpeg/cond_png/cond_gif/Assert_2/Assert/data_0"
  attr {
    key: "T"
    value {
      list {
        type: DT_STRING
      }
    }
  }
  attr {
    key: "summarize"
    value {
      i: 3
    }
  }
}
node {
  name: "case/cond/cond_jpeg/decode_image/cond_jpeg/cond_png/cond_gif/DecodeBmp"
  op: "DecodeBmp"
  input: "case/cond/cond_jpeg/decode_image/cond_jpeg/cond_png/cond_gif/Substr/Switch"
  input: "^case/Assert/AssertGuard/Merge"
  input: "^case/cond/cond_jpeg/decode_image/cond_jpeg/cond_png/cond_gif/Assert_1/Assert"
  input: "^case/cond/cond_jpeg/decode_image/cond_jpeg/cond_png/cond_gif/Assert_2/Assert"
  attr {
    key: "_output_shapes"
    value {
      list {
        shape {
          dim {
            size: -1
          }
          dim {
            size: -1
          }
          dim {
            size: -1
          }
        }
      }
    }
  }
  attr {
    key: "channels"
    value {
      i: 0
    }
  }
}
node {
  name: "case/cond/cond_jpeg/decode_image/cond_jpeg/cond_png/cond_gif/Merge"
  op: "Merge"
  input: "case/cond/cond_jpeg/decode_image/cond_jpeg/cond_png/cond_gif/DecodeBmp"
  input: "case/cond/cond_jpeg/decode_image/cond_jpeg/cond_png/cond_gif/DecodeGif"
  attr {
    key: "N"
    value {
      i: 2
    }
  }
  attr {
    key: "T"
    value {
      type: DT_UINT8
    }
  }
  attr {
    key: "_output_shapes"
    value {
      list {
        shape {
          unknown_rank: true
        }
        shape {
        }
      }
    }
  }
}
node {
  name: "case/cond/cond_jpeg/decode_image/cond_jpeg/cond_png/Merge"
  op: "Merge"
  input: "case/cond/cond_jpeg/decode_image/cond_jpeg/cond_png/cond_gif/Merge"
  input: "case/cond/cond_jpeg/decode_image/cond_jpeg/cond_png/DecodePng"
  attr {
    key: "N"
    value {
      i: 2
    }
  }
  attr {
    key: "T"
    value {
      type: DT_UINT8
    }
  }
  attr {
    key: "_output_shapes"
    value {
      list {
        shape {
          unknown_rank: true
        }
        shape {
        }
      }
    }
  }
}
node {
  name: "case/cond/cond_jpeg/decode_image/cond_jpeg/Merge"
  op: "Merge"
  input: "case/cond/cond_jpeg/decode_image/cond_jpeg/cond_png/Merge"
  input: "case/cond/cond_jpeg/decode_image/cond_jpeg/DecodeJpeg"
  attr {
    key: "N"
    value {
      i: 2
    }
  }
  attr {
    key: "T"
    value {
      type: DT_UINT8
    }
  }
  attr {
    key: "_output_shapes"
    value {
      list {
        shape {
          unknown_rank: true
        }
        shape {
        }
      }
    }
  }
}
node {
  name: "case/cond/cond_jpeg/Merge"
  op: "Merge"
  input: "case/cond/cond_jpeg/decode_image/cond_jpeg/Merge"
  input: "case/cond/cond_jpeg/DecodeJpeg"
  attr {
    key: "N"
    value {
      i: 2
    }
  }
  attr {
    key: "T"
    value {
      type: DT_UINT8
    }
  }
  attr {
    key: "_output_shapes"
    value {
      list {
        shape {
          unknown_rank: true
        }
        shape {
        }
      }
    }
  }
}
node {
  name: "case/cond/Merge"
  op: "Merge"
  input: "case/cond/cond_jpeg/Merge"
  input: "case/cond/DecodeRaw"
  attr {
    key: "N"
    value {
      i: 2
    }
  }
  attr {
    key: "T"
    value {
      type: DT_UINT8
    }
  }
  attr {
    key: "_output_shapes"
    value {
      list {
        shape {
          dim {
            size: -1
          }
          dim {
            size: -1
          }
          dim {
            size: 3
          }
        }
        shape {
        }
      }
    }
  }
}
node {
  name: "distort_image/Const"
  op: "Const"
  attr {
    key: "_output_shapes"
    value {
      list {
        shape {
          dim {
            size: 1
          }
          dim {
            size: 1
          }
          dim {
            size: 4
          }
        }
      }
    }
  }
  attr {
    key: "dtype"
    value {
      type: DT_FLOAT
    }
  }
  attr {
    key: "value"
    value {
      tensor {
        dtype: DT_FLOAT
        tensor_shape {
          dim {
            size: 1
          }
          dim {
            size: 1
          }
          dim {
            size: 4
          }
        }
        tensor_content: "\000\000\000\000\000\000\000\000\000\000\200?\000\000\200?"
      }
    }
  }
}
node {
  name: "distort_image/convert_image/Cast"
  op: "Cast"
  input: "case/cond/Merge"
  attr {
    key: "DstT"
    value {
      type: DT_FLOAT
    }
  }
  attr {
    key: "SrcT"
    value {
      type: DT_UINT8
    }
  }
  attr {
    key: "_output_shapes"
    value {
      list {
        shape {
          dim {
            size: -1
          }
          dim {
            size: -1
          }
          dim {
            size: 3
          }
        }
      }
    }
  }
}
node {
  name: "distort_image/convert_image/y"
  op: "Const"
  attr {
    key: "_output_shapes"
    value {
      list {
        shape {
        }
      }
    }
  }
  attr {
    key: "dtype"
    value {
      type: DT_FLOAT
    }
  }
  attr {
    key: "value"
    value {
      tensor {
        dtype: DT_FLOAT
        tensor_shape {
        }
        float_val: 0.003921568859368563
      }
    }
  }
}
node {
  name: "distort_image/convert_image"
  op: "Mul"
  input: "distort_image/convert_image/Cast"
  input: "distort_image/convert_image/y"
  attr {
    key: "T"
    value {
      type: DT_FLOAT
    }
  }
  attr {
    key: "_output_shapes"
    value {
      list {
        shape {
          dim {
            size: -1
          }
          dim {
            size: -1
          }
          dim {
            size: 3
          }
        }
      }
    }
  }
}
node {
  name: "distort_image/ExpandDims/dim"
  op: "Const"
  attr {
    key: "_output_shapes"
    value {
      list {
        shape {
        }
      }
    }
  }
  attr {
    key: "dtype"
    value {
      type: DT_INT32
    }
  }
  attr {
    key: "value"
    value {
      tensor {
        dtype: DT_INT32
        tensor_shape {
        }
        int_val: 0
      }
    }
  }
}
node {
  name: "distort_image/ExpandDims"
  op: "ExpandDims"
  input: "distort_image/convert_image"
  input: "distort_image/ExpandDims/dim"
  attr {
    key: "T"
    value {
      type: DT_FLOAT
    }
  }
  attr {
    key: "Tdim"
    value {
      type: DT_INT32
    }
  }
  attr {
    key: "_output_shapes"
    value {
      list {
        shape {
          dim {
            size: 1
          }
          dim {
            size: -1
          }
          dim {
            size: -1
          }
          dim {
            size: 3
          }
        }
      }
    }
  }
}
node {
  name: "distort_image/DrawBoundingBoxes"
  op: "DrawBoundingBoxes"
  input: "distort_image/ExpandDims"
  input: "distort_image/Const"
  attr {
    key: "T"
    value {
      type: DT_FLOAT
    }
  }
  attr {
    key: "_output_shapes"
    value {
      list {
        shape {
          dim {
            size: 1
          }
          dim {
            size: -1
          }
          dim {
            size: -1
          }
          dim {
            size: 3
          }
        }
      }
    }
  }
}
node {
  name: "distort_image/image_with_bounding_boxes/tag"
  op: "Const"
  attr {
    key: "_output_shapes"
    value {
      list {
        shape {
        }
      }
    }
  }
  attr {
    key: "dtype"
    value {
      type: DT_STRING
    }
  }
  attr {
    key: "value"
    value {
      tensor {
        dtype: DT_STRING
        tensor_shape {
        }
        string_val: "distort_image/image_with_bounding_boxes"
      }
    }
  }
}
node {
  name: "distort_image/image_with_bounding_boxes"
  op: "ImageSummary"
  input: "distort_image/image_with_bounding_boxes/tag"
  input: "distort_image/DrawBoundingBoxes"
  attr {
    key: "T"
    value {
      type: DT_FLOAT
    }
  }
  attr {
    key: "_output_shapes"
    value {
      list {
        shape {
        }
      }
    }
  }
  attr {
    key: "bad_color"
    value {
      tensor {
        dtype: DT_UINT8
        tensor_shape {
          dim {
            size: 4
          }
        }
        int_val: 255
        int_val: 0
        int_val: 0
        int_val: 255
      }
    }
  }
  attr {
    key: "max_images"
    value {
      i: 3
    }
  }
}
node {
  name: "distort_image/distorted_bounding_box_crop/Shape"
  op: "Shape"
  input: "distort_image/convert_image"
  attr {
    key: "T"
    value {
      type: DT_FLOAT
    }
  }
  attr {
    key: "_output_shapes"
    value {
      list {
        shape {
          dim {
            size: 3
          }
        }
      }
    }
  }
  attr {
    key: "out_type"
    value {
      type: DT_INT32
    }
  }
}
node {
  name: "distort_image/distorted_bounding_box_crop/sample_distorted_bounding_box/SampleDistortedBoundingBoxV2/min_object_covered"
  op: "Const"
  attr {
    key: "_output_shapes"
    value {
      list {
        shape {
        }
      }
    }
  }
  attr {
    key: "dtype"
    value {
      type: DT_FLOAT
    }
  }
  attr {
    key: "value"
    value {
      tensor {
        dtype: DT_FLOAT
        tensor_shape {
        }
        float_val: 0.10000000149011612
      }
    }
  }
}
node {
  name: "distort_image/distorted_bounding_box_crop/sample_distorted_bounding_box/SampleDistortedBoundingBoxV2"
  op: "SampleDistortedBoundingBoxV2"
  input: "distort_image/distorted_bounding_box_crop/Shape"
  input: "distort_image/Const"
  input: "distort_image/distorted_bounding_box_crop/sample_distorted_bounding_box/SampleDistortedBoundingBoxV2/min_object_covered"
  attr {
    key: "T"
    value {
      type: DT_INT32
    }
  }
  attr {
    key: "_output_shapes"
    value {
      list {
        shape {
          dim {
            size: 3
          }
        }
        shape {
          dim {
            size: 3
          }
        }
        shape {
          dim {
            size: 1
          }
          dim {
            size: 1
          }
          dim {
            size: 4
          }
        }
      }
    }
  }
  attr {
    key: "area_range"
    value {
      list {
        f: 0.05000000074505806
        f: 1.0
      }
    }
  }
  attr {
    key: "aspect_ratio_range"
    value {
      list {
        f: 0.75
        f: 1.3300000429153442
      }
    }
  }
  attr {
    key: "max_attempts"
    value {
      i: 100
    }
  }
  attr {
    key: "seed"
    value {
      i: 0
    }
  }
  attr {
    key: "seed2"
    value {
      i: 0
    }
  }
  attr {
    key: "use_image_if_no_bounding_boxes"
    value {
      b: true
    }
  }
}
node {
  name: "distort_image/distorted_bounding_box_crop/Slice"
  op: "Slice"
  input: "distort_image/convert_image"
  input: "distort_image/distorted_bounding_box_crop/sample_distorted_bounding_box/SampleDistortedBoundingBoxV2"
  input: "distort_image/distorted_bounding_box_crop/sample_distorted_bounding_box/SampleDistortedBoundingBoxV2:1"
  attr {
    key: "Index"
    value {
      type: DT_INT32
    }
  }
  attr {
    key: "T"
    value {
      type: DT_FLOAT
    }
  }
  attr {
    key: "_output_shapes"
    value {
      list {
        shape {
          dim {
            size: -1
          }
          dim {
            size: -1
          }
          dim {
            size: 3
          }
        }
      }
    }
  }
}
node {
  name: "distort_image/ExpandDims_1/dim"
  op: "Const"
  attr {
    key: "_output_shapes"
    value {
      list {
        shape {
        }
      }
    }
  }
  attr {
    key: "dtype"
    value {
      type: DT_INT32
    }
  }
  attr {
    key: "value"
    value {
      tensor {
        dtype: DT_INT32
        tensor_shape {
        }
        int_val: 0
      }
    }
  }
}
node {
  name: "distort_image/ExpandDims_1"
  op: "ExpandDims"
  input: "distort_image/convert_image"
  input: "distort_image/ExpandDims_1/dim"
  attr {
    key: "T"
    value {
      type: DT_FLOAT
    }
  }
  attr {
    key: "Tdim"
    value {
      type: DT_INT32
    }
  }
  attr {
    key: "_output_shapes"
    value {
      list {
        shape {
          dim {
            size: 1
          }
          dim {
            size: -1
          }
          dim {
            size: -1
          }
          dim {
            size: 3
          }
        }
      }
    }
  }
}
node {
  name: "distort_image/DrawBoundingBoxes_1"
  op: "DrawBoundingBoxes"
  input: "distort_image/ExpandDims_1"
  input: "distort_image/distorted_bounding_box_crop/sample_distorted_bounding_box/SampleDistortedBoundingBoxV2:2"
  attr {
    key: "T"
    value {
      type: DT_FLOAT
    }
  }
  attr {
    key: "_output_shapes"
    value {
      list {
        shape {
          dim {
            size: 1
          }
          dim {
            size: -1
          }
          dim {
            size: -1
          }
          dim {
            size: 3
          }
        }
      }
    }
  }
}
node {
  name: "distort_image/images_with_distorted_bounding_box/tag"
  op: "Const"
  attr {
    key: "_output_shapes"
    value {
      list {
        shape {
        }
      }
    }
  }
  attr {
    key: "dtype"
    value {
      type: DT_STRING
    }
  }
  attr {
    key: "value"
    value {
      tensor {
        dtype: DT_STRING
        tensor_shape {
        }
        string_val: "distort_image/images_with_distorted_bounding_box"
      }
    }
  }
}
node {
  name: "distort_image/images_with_distorted_bounding_box"
  op: "ImageSummary"
  input: "distort_image/images_with_distorted_bounding_box/tag"
  input: "distort_image/DrawBoundingBoxes_1"
  attr {
    key: "T"
    value {
      type: DT_FLOAT
    }
  }
  attr {
    key: "_output_shapes"
    value {
      list {
        shape {
        }
      }
    }
  }
  attr {
    key: "bad_color"
    value {
      tensor {
        dtype: DT_UINT8
        tensor_shape {
          dim {
            size: 4
          }
        }
        int_val: 255
        int_val: 0
        int_val: 0
        int_val: 255
      }
    }
  }
  attr {
    key: "max_images"
    value {
      i: 3
    }
  }
}
node {
  name: "distort_image/random_uniform/shape"
  op: "Const"
  attr {
    key: "_output_shapes"
    value {
      list {
        shape {
          dim {
          }
        }
      }
    }
  }
  attr {
    key: "dtype"
    value {
      type: DT_INT32
    }
  }
  attr {
    key: "value"
    value {
      tensor {
        dtype: DT_INT32
        tensor_shape {
          dim {
          }
        }
      }
    }
  }
}
node {
  name: "distort_image/random_uniform/min"
  op: "Const"
  attr {
    key: "_output_shapes"
    value {
      list {
        shape {
        }
      }
    }
  }
  attr {
    key: "dtype"
    value {
      type: DT_INT32
    }
  }
  attr {
    key: "value"
    value {
      tensor {
        dtype: DT_INT32
        tensor_shape {
        }
        int_val: 0
      }
    }
  }
}
node {
  name: "distort_image/random_uniform/max"
  op: "Const"
  attr {
    key: "_output_shapes"
    value {
      list {
        shape {
        }
      }
    }
  }
  attr {
    key: "dtype"
    value {
      type: DT_INT32
    }
  }
  attr {
    key: "value"
    value {
      tensor {
        dtype: DT_INT32
        tensor_shape {
        }
        int_val: 1
      }
    }
  }
}
node {
  name: "distort_image/random_uniform"
  op: "RandomUniformInt"
  input: "distort_image/random_uniform/shape"
  input: "distort_image/random_uniform/min"
  input: "distort_image/random_uniform/max"
  attr {
    key: "T"
    value {
      type: DT_INT32
    }
  }
  attr {
    key: "Tout"
    value {
      type: DT_INT32
    }
  }
  attr {
    key: "_output_shapes"
    value {
      list {
        shape {
        }
      }
    }
  }
  attr {
    key: "seed"
    value {
      i: 0
    }
  }
  attr {
    key: "seed2"
    value {
      i: 0
    }
  }
}
node {
  name: "distort_image/Equal/y"
  op: "Const"
  attr {
    key: "_output_shapes"
    value {
      list {
        shape {
        }
      }
    }
  }
  attr {
    key: "dtype"
    value {
      type: DT_INT32
    }
  }
  attr {
    key: "value"
    value {
      tensor {
        dtype: DT_INT32
        tensor_shape {
        }
        int_val: 0
      }
    }
  }
}
node {
  name: "distort_image/Equal"
  op: "Equal"
  input: "distort_image/random_uniform"
  input: "distort_image/Equal/y"
  attr {
    key: "T"
    value {
      type: DT_INT32
    }
  }
  attr {
    key: "_output_shapes"
    value {
      list {
        shape {
        }
      }
    }
  }
}
node {
  name: "distort_image/Switch"
  op: "Switch"
  input: "distort_image/distorted_bounding_box_crop/Slice"
  input: "distort_image/Equal"
  attr {
    key: "T"
    value {
      type: DT_FLOAT
    }
  }
  attr {
    key: "_output_shapes"
    value {
      list {
        shape {
          dim {
            size: -1
          }
          dim {
            size: -1
          }
          dim {
            size: 3
          }
        }
        shape {
          dim {
            size: -1
          }
          dim {
            size: -1
          }
          dim {
            size: 3
          }
        }
      }
    }
  }
}
node {
  name: "distort_image/resize_images/ExpandDims/dim"
  op: "Const"
  attr {
    key: "_output_shapes"
    value {
      list {
        shape {
        }
      }
    }
  }
  attr {
    key: "dtype"
    value {
      type: DT_INT32
    }
  }
  attr {
    key: "value"
    value {
      tensor {
        dtype: DT_INT32
        tensor_shape {
        }
        int_val: 0
      }
    }
  }
}
node {
  name: "distort_image/resize_images/ExpandDims"
  op: "ExpandDims"
  input: "distort_image/Switch:1"
  input: "distort_image/resize_images/ExpandDims/dim"
  attr {
    key: "T"
    value {
      type: DT_FLOAT
    }
  }
  attr {
    key: "Tdim"
    value {
      type: DT_INT32
    }
  }
  attr {
    key: "_output_shapes"
    value {
      list {
        shape {
          dim {
            size: 1
          }
          dim {
            size: -1
          }
          dim {
            size: -1
          }
          dim {
            size: 3
          }
        }
      }
    }
  }
}
node {
  name: "distort_image/resize_images/size"
  op: "Const"
  attr {
    key: "_output_shapes"
    value {
      list {
        shape {
          dim {
            size: 2
          }
        }
      }
    }
  }
  attr {
    key: "dtype"
    value {
      type: DT_INT32
    }
  }
  attr {
    key: "value"
    value {
      tensor {
        dtype: DT_INT32
        tensor_shape {
          dim {
            size: 2
          }
        }
        tensor_content: "\340\000\000\000\340\000\000\000"
      }
    }
  }
}
node {
  name: "distort_image/resize_images/ResizeBilinear"
  op: "ResizeBilinear"
  input: "distort_image/resize_images/ExpandDims"
  input: "distort_image/resize_images/size"
  attr {
    key: "T"
    value {
      type: DT_FLOAT
    }
  }
  attr {
    key: "_output_shapes"
    value {
      list {
        shape {
          dim {
            size: 1
          }
          dim {
            size: 224
          }
          dim {
            size: 224
          }
          dim {
            size: 3
          }
        }
      }
    }
  }
  attr {
    key: "align_corners"
    value {
      b: false
    }
  }
}
node {
  name: "distort_image/resize_images/Squeeze"
  op: "Squeeze"
  input: "distort_image/resize_images/ResizeBilinear"
  attr {
    key: "T"
    value {
      type: DT_FLOAT
    }
  }
  attr {
    key: "_output_shapes"
    value {
      list {
        shape {
          dim {
            size: 224
          }
          dim {
            size: 224
          }
          dim {
            size: 3
          }
        }
      }
    }
  }
  attr {
    key: "squeeze_dims"
    value {
      list {
        i: 0
      }
    }
  }
}
node {
  name: "distort_image/Merge"
  op: "Merge"
  input: "distort_image/resize_images/Squeeze"
  attr {
    key: "N"
    value {
      i: 1
    }
  }
  attr {
    key: "T"
    value {
      type: DT_FLOAT
    }
  }
  attr {
    key: "_output_shapes"
    value {
      list {
        shape {
          dim {
            size: 224
          }
          dim {
            size: 224
          }
          dim {
            size: 3
          }
        }
        shape {
        }
      }
    }
  }
}
node {
  name: "distort_image/ExpandDims_2/dim"
  op: "Const"
  attr {
    key: "_output_shapes"
    value {
      list {
        shape {
        }
      }
    }
  }
  attr {
    key: "dtype"
    value {
      type: DT_INT32
    }
  }
  attr {
    key: "value"
    value {
      tensor {
        dtype: DT_INT32
        tensor_shape {
        }
        int_val: 0
      }
    }
  }
}
node {
  name: "distort_image/ExpandDims_2"
  op: "ExpandDims"
  input: "distort_image/Merge"
  input: "distort_image/ExpandDims_2/dim"
  attr {
    key: "T"
    value {
      type: DT_FLOAT
    }
  }
  attr {
    key: "Tdim"
    value {
      type: DT_INT32
    }
  }
  attr {
    key: "_output_shapes"
    value {
      list {
        shape {
          dim {
            size: 1
          }
          dim {
            size: 224
          }
          dim {
            size: 224
          }
          dim {
            size: 3
          }
        }
      }
    }
  }
}
node {
  name: "distort_image/cropped_resized_image/tag"
  op: "Const"
  attr {
    key: "_output_shapes"
    value {
      list {
        shape {
        }
      }
    }
  }
  attr {
    key: "dtype"
    value {
      type: DT_STRING
    }
  }
  attr {
    key: "value"
    value {
      tensor {
        dtype: DT_STRING
        tensor_shape {
        }
        string_val: "distort_image/cropped_resized_image"
      }
    }
  }
}
node {
  name: "distort_image/cropped_resized_image"
  op: "ImageSummary"
  input: "distort_image/cropped_resized_image/tag"
  input: "distort_image/ExpandDims_2"
  attr {
    key: "T"
    value {
      type: DT_FLOAT
    }
  }
  attr {
    key: "_output_shapes"
    value {
      list {
        shape {
        }
      }
    }
  }
  attr {
    key: "bad_color"
    value {
      tensor {
        dtype: DT_UINT8
        tensor_shape {
          dim {
            size: 4
          }
        }
        int_val: 255
        int_val: 0
        int_val: 0
        int_val: 255
      }
    }
  }
  attr {
    key: "max_images"
    value {
      i: 3
    }
  }
}
node {
  name: "distort_image/random_flip_left_right/control_dependency"
  op: "Identity"
  input: "distort_image/Merge"
  attr {
    key: "T"
    value {
      type: DT_FLOAT
    }
  }
  attr {
    key: "_class"
    value {
      list {
        s: "loc:@distort_image/Merge"
      }
    }
  }
  attr {
    key: "_output_shapes"
    value {
      list {
        shape {
          dim {
            size: 224
          }
          dim {
            size: 224
          }
          dim {
            size: 3
          }
        }
      }
    }
  }
}
node {
  name: "distort_image/random_flip_left_right/random_uniform/shape"
  op: "Const"
  attr {
    key: "_output_shapes"
    value {
      list {
        shape {
          dim {
          }
        }
      }
    }
  }
  attr {
    key: "dtype"
    value {
      type: DT_INT32
    }
  }
  attr {
    key: "value"
    value {
      tensor {
        dtype: DT_INT32
        tensor_shape {
          dim {
          }
        }
      }
    }
  }
}
node {
  name: "distort_image/random_flip_left_right/random_uniform/min"
  op: "Const"
  attr {
    key: "_output_shapes"
    value {
      list {
        shape {
        }
      }
    }
  }
  attr {
    key: "dtype"
    value {
      type: DT_FLOAT
    }
  }
  attr {
    key: "value"
    value {
      tensor {
        dtype: DT_FLOAT
        tensor_shape {
        }
        float_val: 0.0
      }
    }
  }
}
node {
  name: "distort_image/random_flip_left_right/random_uniform/max"
  op: "Const"
  attr {
    key: "_output_shapes"
    value {
      list {
        shape {
        }
      }
    }
  }
  attr {
    key: "dtype"
    value {
      type: DT_FLOAT
    }
  }
  attr {
    key: "value"
    value {
      tensor {
        dtype: DT_FLOAT
        tensor_shape {
        }
        float_val: 1.0
      }
    }
  }
}
node {
  name: "distort_image/random_flip_left_right/random_uniform/RandomUniform"
  op: "RandomUniform"
  input: "distort_image/random_flip_left_right/random_uniform/shape"
  attr {
    key: "T"
    value {
      type: DT_INT32
    }
  }
  attr {
    key: "_output_shapes"
    value {
      list {
        shape {
        }
      }
    }
  }
  attr {
    key: "dtype"
    value {
      type: DT_FLOAT
    }
  }
  attr {
    key: "seed"
    value {
      i: 0
    }
  }
  attr {
    key: "seed2"
    value {
      i: 0
    }
  }
}
node {
  name: "distort_image/random_flip_left_right/random_uniform/sub"
  op: "Sub"
  input: "distort_image/random_flip_left_right/random_uniform/max"
  input: "distort_image/random_flip_left_right/random_uniform/min"
  attr {
    key: "T"
    value {
      type: DT_FLOAT
    }
  }
  attr {
    key: "_output_shapes"
    value {
      list {
        shape {
        }
      }
    }
  }
}
node {
  name: "distort_image/random_flip_left_right/random_uniform/mul"
  op: "Mul"
  input: "distort_image/random_flip_left_right/random_uniform/RandomUniform"
  input: "distort_image/random_flip_left_right/random_uniform/sub"
  attr {
    key: "T"
    value {
      type: DT_FLOAT
    }
  }
  attr {
    key: "_output_shapes"
    value {
      list {
        shape {
        }
      }
    }
  }
}
node {
  name: "distort_image/random_flip_left_right/random_uniform"
  op: "Add"
  input: "distort_image/random_flip_left_right/random_uniform/mul"
  input: "distort_image/random_flip_left_right/random_uniform/min"
  attr {
    key: "T"
    value {
      type: DT_FLOAT
    }
  }
  attr {
    key: "_output_shapes"
    value {
      list {
        shape {
        }
      }
    }
  }
}
node {
  name: "distort_image/random_flip_left_right/Less/y"
  op: "Const"
  attr {
    key: "_output_shapes"
    value {
      list {
        shape {
        }
      }
    }
  }
  attr {
    key: "dtype"
    value {
      type: DT_FLOAT
    }
  }
  attr {
    key: "value"
    value {
      tensor {
        dtype: DT_FLOAT
        tensor_shape {
        }
        float_val: 0.5
      }
    }
  }
}
node {
  name: "distort_image/random_flip_left_right/Less"
  op: "Less"
  input: "distort_image/random_flip_left_right/random_uniform"
  input: "distort_image/random_flip_left_right/Less/y"
  attr {
    key: "T"
    value {
      type: DT_FLOAT
    }
  }
  attr {
    key: "_output_shapes"
    value {
      list {
        shape {
        }
      }
    }
  }
}
node {
  name: "distort_image/random_flip_left_right/Switch"
  op: "Switch"
  input: "distort_image/random_flip_left_right/Less"
  input: "distort_image/random_flip_left_right/Less"
  attr {
    key: "T"
    value {
      type: DT_BOOL
    }
  }
  attr {
    key: "_output_shapes"
    value {
      list {
        shape {
        }
        shape {
        }
      }
    }
  }
}
node {
  name: "distort_image/random_flip_left_right/switch_t"
  op: "Identity"
  input: "distort_image/random_flip_left_right/Switch:1"
  attr {
    key: "T"
    value {
      type: DT_BOOL
    }
  }
  attr {
    key: "_output_shapes"
    value {
      list {
        shape {
        }
      }
    }
  }
}
node {
  name: "distort_image/random_flip_left_right/switch_f"
  op: "Identity"
  input: "distort_image/random_flip_left_right/Switch"
  attr {
    key: "T"
    value {
      type: DT_BOOL
    }
  }
  attr {
    key: "_output_shapes"
    value {
      list {
        shape {
        }
      }
    }
  }
}
node {
  name: "distort_image/random_flip_left_right/pred_id"
  op: "Identity"
  input: "distort_image/random_flip_left_right/Less"
  attr {
    key: "T"
    value {
      type: DT_BOOL
    }
  }
  attr {
    key: "_output_shapes"
    value {
      list {
        shape {
        }
      }
    }
  }
}
node {
  name: "distort_image/random_flip_left_right/ReverseV2/axis"
  op: "Const"
  input: "^distort_image/random_flip_left_right/switch_t"
  attr {
    key: "_output_shapes"
    value {
      list {
        shape {
          dim {
            size: 1
          }
        }
      }
    }
  }
  attr {
    key: "dtype"
    value {
      type: DT_INT32
    }
  }
  attr {
    key: "value"
    value {
      tensor {
        dtype: DT_INT32
        tensor_shape {
          dim {
            size: 1
          }
        }
        int_val: 1
      }
    }
  }
}
node {
  name: "distort_image/random_flip_left_right/ReverseV2"
  op: "ReverseV2"
  input: "distort_image/random_flip_left_right/ReverseV2/Switch:1"
  input: "distort_image/random_flip_left_right/ReverseV2/axis"
  attr {
    key: "T"
    value {
      type: DT_FLOAT
    }
  }
  attr {
    key: "Tidx"
    value {
      type: DT_INT32
    }
  }
  attr {
    key: "_output_shapes"
    value {
      list {
        shape {
          dim {
            size: 224
          }
          dim {
            size: 224
          }
          dim {
            size: 3
          }
        }
      }
    }
  }
}
node {
  name: "distort_image/random_flip_left_right/ReverseV2/Switch"
  op: "Switch"
  input: "distort_image/random_flip_left_right/control_dependency"
  input: "distort_image/random_flip_left_right/pred_id"
  attr {
    key: "T"
    value {
      type: DT_FLOAT
    }
  }
  attr {
    key: "_class"
    value {
      list {
        s: "loc:@distort_image/Merge"
      }
    }
  }
  attr {
    key: "_output_shapes"
    value {
      list {
        shape {
          dim {
            size: 224
          }
          dim {
            size: 224
          }
          dim {
            size: 3
          }
        }
        shape {
          dim {
            size: 224
          }
          dim {
            size: 224
          }
          dim {
            size: 3
          }
        }
      }
    }
  }
}
node {
  name: "distort_image/random_flip_left_right/Switch_1"
  op: "Switch"
  input: "distort_image/random_flip_left_right/control_dependency"
  input: "distort_image/random_flip_left_right/pred_id"
  attr {
    key: "T"
    value {
      type: DT_FLOAT
    }
  }
  attr {
    key: "_class"
    value {
      list {
        s: "loc:@distort_image/Merge"
      }
    }
  }
  attr {
    key: "_output_shapes"
    value {
      list {
        shape {
          dim {
            size: 224
          }
          dim {
            size: 224
          }
          dim {
            size: 3
          }
        }
        shape {
          dim {
            size: 224
          }
          dim {
            size: 224
          }
          dim {
            size: 3
          }
        }
      }
    }
  }
}
node {
  name: "distort_image/random_flip_left_right/Merge"
  op: "Merge"
  input: "distort_image/random_flip_left_right/Switch_1"
  input: "distort_image/random_flip_left_right/ReverseV2"
  attr {
    key: "N"
    value {
      i: 2
    }
  }
  attr {
    key: "T"
    value {
      type: DT_FLOAT
    }
  }
  attr {
    key: "_output_shapes"
    value {
      list {
        shape {
          dim {
            size: 224
          }
          dim {
            size: 224
          }
          dim {
            size: 3
          }
        }
        shape {
        }
      }
    }
  }
}
node {
  name: "distort_image/random_uniform_1/shape"
  op: "Const"
  attr {
    key: "_output_shapes"
    value {
      list {
        shape {
          dim {
          }
        }
      }
    }
  }
  attr {
    key: "dtype"
    value {
      type: DT_INT32
    }
  }
  attr {
    key: "value"
    value {
      tensor {
        dtype: DT_INT32
        tensor_shape {
          dim {
          }
        }
      }
    }
  }
}
node {
  name: "distort_image/random_uniform_1/min"
  op: "Const"
  attr {
    key: "_output_shapes"
    value {
      list {
        shape {
        }
      }
    }
  }
  attr {
    key: "dtype"
    value {
      type: DT_INT32
    }
  }
  attr {
    key: "value"
    value {
      tensor {
        dtype: DT_INT32
        tensor_shape {
        }
        int_val: 0
      }
    }
  }
}
node {
  name: "distort_image/random_uniform_1/max"
  op: "Const"
  attr {
    key: "_output_shapes"
    value {
      list {
        shape {
        }
      }
    }
  }
  attr {
    key: "dtype"
    value {
      type: DT_INT32
    }
  }
  attr {
    key: "value"
    value {
      tensor {
        dtype: DT_INT32
        tensor_shape {
        }
        int_val: 1
      }
    }
  }
}
node {
  name: "distort_image/random_uniform_1"
  op: "RandomUniformInt"
  input: "distort_image/random_uniform_1/shape"
  input: "distort_image/random_uniform_1/min"
  input: "distort_image/random_uniform_1/max"
  attr {
    key: "T"
    value {
      type: DT_INT32
    }
  }
  attr {
    key: "Tout"
    value {
      type: DT_INT32
    }
  }
  attr {
    key: "_output_shapes"
    value {
      list {
        shape {
        }
      }
    }
  }
  attr {
    key: "seed"
    value {
      i: 0
    }
  }
  attr {
    key: "seed2"
    value {
      i: 0
    }
  }
}
node {
  name: "distort_image/Equal_1/y"
  op: "Const"
  attr {
    key: "_output_shapes"
    value {
      list {
        shape {
        }
      }
    }
  }
  attr {
    key: "dtype"
    value {
      type: DT_INT32
    }
  }
  attr {
    key: "value"
    value {
      tensor {
        dtype: DT_INT32
        tensor_shape {
        }
        int_val: 0
      }
    }
  }
}
node {
  name: "distort_image/Equal_1"
  op: "Equal"
  input: "distort_image/random_uniform_1"
  input: "distort_image/Equal_1/y"
  attr {
    key: "T"
    value {
      type: DT_INT32
    }
  }
  attr {
    key: "_output_shapes"
    value {
      list {
        shape {
        }
      }
    }
  }
}
node {
  name: "distort_image/Switch_1"
  op: "Switch"
  input: "distort_image/random_flip_left_right/Merge"
  input: "distort_image/Equal_1"
  attr {
    key: "T"
    value {
      type: DT_FLOAT
    }
  }
  attr {
    key: "_output_shapes"
    value {
      list {
        shape {
          dim {
            size: 224
          }
          dim {
            size: 224
          }
          dim {
            size: 3
          }
        }
        shape {
          dim {
            size: 224
          }
          dim {
            size: 224
          }
          dim {
            size: 3
          }
        }
      }
    }
  }
}
node {
  name: "distort_image/distort_color/random_uniform/shape"
  op: "Const"
  attr {
    key: "_output_shapes"
    value {
      list {
        shape {
          dim {
          }
        }
      }
    }
  }
  attr {
    key: "dtype"
    value {
      type: DT_INT32
    }
  }
  attr {
    key: "value"
    value {
      tensor {
        dtype: DT_INT32
        tensor_shape {
          dim {
          }
        }
      }
    }
  }
}
node {
  name: "distort_image/distort_color/random_uniform/min"
  op: "Const"
  attr {
    key: "_output_shapes"
    value {
      list {
        shape {
        }
      }
    }
  }
  attr {
    key: "dtype"
    value {
      type: DT_FLOAT
    }
  }
  attr {
    key: "value"
    value {
      tensor {
        dtype: DT_FLOAT
        tensor_shape {
        }
        float_val: -0.125490203499794
      }
    }
  }
}
node {
  name: "distort_image/distort_color/random_uniform/max"
  op: "Const"
  attr {
    key: "_output_shapes"
    value {
      list {
        shape {
        }
      }
    }
  }
  attr {
    key: "dtype"
    value {
      type: DT_FLOAT
    }
  }
  attr {
    key: "value"
    value {
      tensor {
        dtype: DT_FLOAT
        tensor_shape {
        }
        float_val: 0.125490203499794
      }
    }
  }
}
node {
  name: "distort_image/distort_color/random_uniform/RandomUniform"
  op: "RandomUniform"
  input: "distort_image/distort_color/random_uniform/shape"
  attr {
    key: "T"
    value {
      type: DT_INT32
    }
  }
  attr {
    key: "_output_shapes"
    value {
      list {
        shape {
        }
      }
    }
  }
  attr {
    key: "dtype"
    value {
      type: DT_FLOAT
    }
  }
  attr {
    key: "seed"
    value {
      i: 0
    }
  }
  attr {
    key: "seed2"
    value {
      i: 0
    }
  }
}
node {
  name: "distort_image/distort_color/random_uniform/sub"
  op: "Sub"
  input: "distort_image/distort_color/random_uniform/max"
  input: "distort_image/distort_color/random_uniform/min"
  attr {
    key: "T"
    value {
      type: DT_FLOAT
    }
  }
  attr {
    key: "_output_shapes"
    value {
      list {
        shape {
        }
      }
    }
  }
}
node {
  name: "distort_image/distort_color/random_uniform/mul"
  op: "Mul"
  input: "distort_image/distort_color/random_uniform/RandomUniform"
  input: "distort_image/distort_color/random_uniform/sub"
  attr {
    key: "T"
    value {
      type: DT_FLOAT
    }
  }
  attr {
    key: "_output_shapes"
    value {
      list {
        shape {
        }
      }
    }
  }
}
node {
  name: "distort_image/distort_color/random_uniform"
  op: "Add"
  input: "distort_image/distort_color/random_uniform/mul"
  input: "distort_image/distort_color/random_uniform/min"
  attr {
    key: "T"
    value {
      type: DT_FLOAT
    }
  }
  attr {
    key: "_output_shapes"
    value {
      list {
        shape {
        }
      }
    }
  }
}
node {
  name: "distort_image/distort_color/adjust_brightness/Identity"
  op: "Identity"
  input: "distort_image/Switch_1:1"
  attr {
    key: "T"
    value {
      type: DT_FLOAT
    }
  }
  attr {
    key: "_output_shapes"
    value {
      list {
        shape {
          dim {
            size: 224
          }
          dim {
            size: 224
          }
          dim {
            size: 3
          }
        }
      }
    }
  }
}
node {
  name: "distort_image/distort_color/adjust_brightness"
  op: "Add"
  input: "distort_image/distort_color/adjust_brightness/Identity"
  input: "distort_image/distort_color/random_uniform"
  attr {
    key: "T"
    value {
      type: DT_FLOAT
    }
  }
  attr {
    key: "_output_shapes"
    value {
      list {
        shape {
          dim {
            size: 224
          }
          dim {
            size: 224
          }
          dim {
            size: 3
          }
        }
      }
    }
  }
}
node {
  name: "distort_image/distort_color/adjust_brightness/Identity_1"
  op: "Identity"
  input: "distort_image/distort_color/adjust_brightness"
  attr {
    key: "T"
    value {
      type: DT_FLOAT
    }
  }
  attr {
    key: "_output_shapes"
    value {
      list {
        shape {
          dim {
            size: 224
          }
          dim {
            size: 224
          }
          dim {
            size: 3
          }
        }
      }
    }
  }
}
node {
  name: "distort_image/distort_color/random_uniform_1/shape"
  op: "Const"
  attr {
    key: "_output_shapes"
    value {
      list {
        shape {
          dim {
          }
        }
      }
    }
  }
  attr {
    key: "dtype"
    value {
      type: DT_INT32
    }
  }
  attr {
    key: "value"
    value {
      tensor {
        dtype: DT_INT32
        tensor_shape {
          dim {
          }
        }
      }
    }
  }
}
node {
  name: "distort_image/distort_color/random_uniform_1/min"
  op: "Const"
  attr {
    key: "_output_shapes"
    value {
      list {
        shape {
        }
      }
    }
  }
  attr {
    key: "dtype"
    value {
      type: DT_FLOAT
    }
  }
  attr {
    key: "value"
    value {
      tensor {
        dtype: DT_FLOAT
        tensor_shape {
        }
        float_val: 0.5
      }
    }
  }
}
node {
  name: "distort_image/distort_color/random_uniform_1/max"
  op: "Const"
  attr {
    key: "_output_shapes"
    value {
      list {
        shape {
        }
      }
    }
  }
  attr {
    key: "dtype"
    value {
      type: DT_FLOAT
    }
  }
  attr {
    key: "value"
    value {
      tensor {
        dtype: DT_FLOAT
        tensor_shape {
        }
        float_val: 1.5
      }
    }
  }
}
node {
  name: "distort_image/distort_color/random_uniform_1/RandomUniform"
  op: "RandomUniform"
  input: "distort_image/distort_color/random_uniform_1/shape"
  attr {
    key: "T"
    value {
      type: DT_INT32
    }
  }
  attr {
    key: "_output_shapes"
    value {
      list {
        shape {
        }
      }
    }
  }
  attr {
    key: "dtype"
    value {
      type: DT_FLOAT
    }
  }
  attr {
    key: "seed"
    value {
      i: 0
    }
  }
  attr {
    key: "seed2"
    value {
      i: 0
    }
  }
}
node {
  name: "distort_image/distort_color/random_uniform_1/sub"
  op: "Sub"
  input: "distort_image/distort_color/random_uniform_1/max"
  input: "distort_image/distort_color/random_uniform_1/min"
  attr {
    key: "T"
    value {
      type: DT_FLOAT
    }
  }
  attr {
    key: "_output_shapes"
    value {
      list {
        shape {
        }
      }
    }
  }
}
node {
  name: "distort_image/distort_color/random_uniform_1/mul"
  op: "Mul"
  input: "distort_image/distort_color/random_uniform_1/RandomUniform"
  input: "distort_image/distort_color/random_uniform_1/sub"
  attr {
    key: "T"
    value {
      type: DT_FLOAT
    }
  }
  attr {
    key: "_output_shapes"
    value {
      list {
        shape {
        }
      }
    }
  }
}
node {
  name: "distort_image/distort_color/random_uniform_1"
  op: "Add"
  input: "distort_image/distort_color/random_uniform_1/mul"
  input: "distort_image/distort_color/random_uniform_1/min"
  attr {
    key: "T"
    value {
      type: DT_FLOAT
    }
  }
  attr {
    key: "_output_shapes"
    value {
      list {
        shape {
        }
      }
    }
  }
}
node {
  name: "distort_image/distort_color/adjust_saturation/Identity"
  op: "Identity"
  input: "distort_image/distort_color/adjust_brightness/Identity_1"
  attr {
    key: "T"
    value {
      type: DT_FLOAT
    }
  }
  attr {
    key: "_output_shapes"
    value {
      list {
        shape {
          dim {
            size: 224
          }
          dim {
            size: 224
          }
          dim {
            size: 3
          }
        }
      }
    }
  }
}
node {
  name: "distort_image/distort_color/adjust_saturation/AdjustSaturation"
  op: "AdjustSaturation"
  input: "distort_image/distort_color/adjust_saturation/Identity"
  input: "distort_image/distort_color/random_uniform_1"
  attr {
    key: "_output_shapes"
    value {
      list {
        shape {
          dim {
            size: 224
          }
          dim {
            size: 224
          }
          dim {
            size: 3
          }
        }
      }
    }
  }
}
node {
  name: "distort_image/distort_color/adjust_saturation/Identity_1"
  op: "Identity"
  input: "distort_image/distort_color/adjust_saturation/AdjustSaturation"
  attr {
    key: "T"
    value {
      type: DT_FLOAT
    }
  }
  attr {
    key: "_output_shapes"
    value {
      list {
        shape {
          dim {
            size: 224
          }
          dim {
            size: 224
          }
          dim {
            size: 3
          }
        }
      }
    }
  }
}
node {
  name: "distort_image/distort_color/clip_by_value/Minimum/y"
  op: "Const"
  attr {
    key: "_output_shapes"
    value {
      list {
        shape {
        }
      }
    }
  }
  attr {
    key: "dtype"
    value {
      type: DT_FLOAT
    }
  }
  attr {
    key: "value"
    value {
      tensor {
        dtype: DT_FLOAT
        tensor_shape {
        }
        float_val: 1.0
      }
    }
  }
}
node {
  name: "distort_image/distort_color/clip_by_value/Minimum"
  op: "Minimum"
  input: "distort_image/distort_color/adjust_saturation/Identity_1"
  input: "distort_image/distort_color/clip_by_value/Minimum/y"
  attr {
    key: "T"
    value {
      type: DT_FLOAT
    }
  }
  attr {
    key: "_output_shapes"
    value {
      list {
        shape {
          dim {
            size: 224
          }
          dim {
            size: 224
          }
          dim {
            size: 3
          }
        }
      }
    }
  }
}
node {
  name: "distort_image/distort_color/clip_by_value/y"
  op: "Const"
  attr {
    key: "_output_shapes"
    value {
      list {
        shape {
        }
      }
    }
  }
  attr {
    key: "dtype"
    value {
      type: DT_FLOAT
    }
  }
  attr {
    key: "value"
    value {
      tensor {
        dtype: DT_FLOAT
        tensor_shape {
        }
        float_val: 0.0
      }
    }
  }
}
node {
  name: "distort_image/distort_color/clip_by_value"
  op: "Maximum"
  input: "distort_image/distort_color/clip_by_value/Minimum"
  input: "distort_image/distort_color/clip_by_value/y"
  attr {
    key: "T"
    value {
      type: DT_FLOAT
    }
  }
  attr {
    key: "_output_shapes"
    value {
      list {
        shape {
          dim {
            size: 224
          }
          dim {
            size: 224
          }
          dim {
            size: 3
          }
        }
      }
    }
  }
}
node {
  name: "distort_image/Merge_1"
  op: "Merge"
  input: "distort_image/distort_color/clip_by_value"
  attr {
    key: "N"
    value {
      i: 1
    }
  }
  attr {
    key: "T"
    value {
      type: DT_FLOAT
    }
  }
  attr {
    key: "_output_shapes"
    value {
      list {
        shape {
          dim {
            size: 224
          }
          dim {
            size: 224
          }
          dim {
            size: 3
          }
        }
        shape {
        }
      }
    }
  }
}
node {
  name: "distort_image/ExpandDims_3/dim"
  op: "Const"
  attr {
    key: "_output_shapes"
    value {
      list {
        shape {
        }
      }
    }
  }
  attr {
    key: "dtype"
    value {
      type: DT_INT32
    }
  }
  attr {
    key: "value"
    value {
      tensor {
        dtype: DT_INT32
        tensor_shape {
        }
        int_val: 0
      }
    }
  }
}
node {
  name: "distort_image/ExpandDims_3"
  op: "ExpandDims"
  input: "distort_image/Merge_1"
  input: "distort_image/ExpandDims_3/dim"
  attr {
    key: "T"
    value {
      type: DT_FLOAT
    }
  }
  attr {
    key: "Tdim"
    value {
      type: DT_INT32
    }
  }
  attr {
    key: "_output_shapes"
    value {
      list {
        shape {
          dim {
            size: 1
          }
          dim {
            size: 224
          }
          dim {
            size: 224
          }
          dim {
            size: 3
          }
        }
      }
    }
  }
}
node {
  name: "distort_image/final_distorted_image/tag"
  op: "Const"
  attr {
    key: "_output_shapes"
    value {
      list {
        shape {
        }
      }
    }
  }
  attr {
    key: "dtype"
    value {
      type: DT_STRING
    }
  }
  attr {
    key: "value"
    value {
      tensor {
        dtype: DT_STRING
        tensor_shape {
        }
        string_val: "distort_image/final_distorted_image"
      }
    }
  }
}
node {
  name: "distort_image/final_distorted_image"
  op: "ImageSummary"
  input: "distort_image/final_distorted_image/tag"
  input: "distort_image/ExpandDims_3"
  attr {
    key: "T"
    value {
      type: DT_FLOAT
    }
  }
  attr {
    key: "_output_shapes"
    value {
      list {
        shape {
        }
      }
    }
  }
  attr {
    key: "bad_color"
    value {
      tensor {
        dtype: DT_UINT8
        tensor_shape {
          dim {
            size: 4
          }
        }
        int_val: 255
        int_val: 0
        int_val: 0
        int_val: 255
      }
    }
  }
  attr {
    key: "max_images"
    value {
      i: 3
    }
  }
}
node {
  name: "distort_image/Sub/y"
  op: "Const"
  attr {
    key: "_output_shapes"
    value {
      list {
        shape {
        }
      }
    }
  }
  attr {
    key: "dtype"
    value {
      type: DT_FLOAT
    }
  }
  attr {
    key: "value"
    value {
      tensor {
        dtype: DT_FLOAT
        tensor_shape {
        }
        float_val: 0.5
      }
    }
  }
}
node {
  name: "distort_image/Sub"
  op: "Sub"
  input: "distort_image/Merge_1"
  input: "distort_image/Sub/y"
  attr {
    key: "T"
    value {
      type: DT_FLOAT
    }
  }
  attr {
    key: "_output_shapes"
    value {
      list {
        shape {
          dim {
            size: 224
          }
          dim {
            size: 224
          }
          dim {
            size: 3
          }
        }
      }
    }
  }
}
node {
  name: "distort_image/Mul/y"
  op: "Const"
  attr {
    key: "_output_shapes"
    value {
      list {
        shape {
        }
      }
    }
  }
  attr {
    key: "dtype"
    value {
      type: DT_FLOAT
    }
  }
  attr {
    key: "value"
    value {
      tensor {
        dtype: DT_FLOAT
        tensor_shape {
        }
        float_val: 2.0
      }
    }
  }
}
node {
  name: "distort_image/Mul"
  op: "Mul"
  input: "distort_image/Sub"
  input: "distort_image/Mul/y"
  attr {
    key: "T"
    value {
      type: DT_FLOAT
    }
  }
  attr {
    key: "_output_shapes"
    value {
      list {
        shape {
          dim {
            size: 224
          }
          dim {
            size: 224
          }
          dim {
            size: 3
          }
        }
      }
    }
  }
}
node {
  name: "OneHotEncoding/one_hot/Const"
  op: "Const"
  attr {
    key: "_output_shapes"
    value {
      list {
        shape {
        }
      }
    }
  }
  attr {
    key: "dtype"
    value {
      type: DT_FLOAT
    }
  }
  attr {
    key: "value"
    value {
      tensor {
        dtype: DT_FLOAT
        tensor_shape {
        }
        float_val: 1.0
      }
    }
  }
}
node {
  name: "OneHotEncoding/one_hot/Const_1"
  op: "Const"
  attr {
    key: "_output_shapes"
    value {
      list {
        shape {
        }
      }
    }
  }
  attr {
    key: "dtype"
    value {
      type: DT_FLOAT
    }
  }
  attr {
    key: "value"
    value {
      tensor {
        dtype: DT_FLOAT
        tensor_shape {
        }
        float_val: 0.0
      }
    }
  }
}
node {
  name: "OneHotEncoding/one_hot/depth"
  op: "Const"
  attr {
    key: "_output_shapes"
    value {
      list {
        shape {
        }
      }
    }
  }
  attr {
    key: "dtype"
    value {
      type: DT_INT32
    }
  }
  attr {
    key: "value"
    value {
      tensor {
        dtype: DT_INT32
        tensor_shape {
        }
        int_val: 2
      }
    }
  }
}
node {
  name: "OneHotEncoding/one_hot/on_value"
  op: "Const"
  attr {
    key: "_output_shapes"
    value {
      list {
        shape {
        }
      }
    }
  }
  attr {
    key: "dtype"
    value {
      type: DT_FLOAT
    }
  }
  attr {
    key: "value"
    value {
      tensor {
        dtype: DT_FLOAT
        tensor_shape {
        }
        float_val: 1.0
      }
    }
  }
}
node {
  name: "OneHotEncoding/one_hot/off_value"
  op: "Const"
  attr {
    key: "_output_shapes"
    value {
      list {
        shape {
        }
      }
    }
  }
  attr {
    key: "dtype"
    value {
      type: DT_FLOAT
    }
  }
  attr {
    key: "value"
    value {
      tensor {
        dtype: DT_FLOAT
        tensor_shape {
        }
        float_val: 0.0
      }
    }
  }
}
node {
  name: "OneHotEncoding/one_hot"
  op: "OneHot"
  input: "Reshape"
  input: "OneHotEncoding/one_hot/depth"
  input: "OneHotEncoding/one_hot/on_value"
  input: "OneHotEncoding/one_hot/off_value"
  attr {
    key: "T"
    value {
      type: DT_FLOAT
    }
  }
  attr {
    key: "TI"
    value {
      type: DT_INT64
    }
  }
  attr {
    key: "_output_shapes"
    value {
      list {
        shape {
          dim {
            size: 2
          }
        }
      }
    }
  }
  attr {
    key: "axis"
    value {
      i: -1
    }
  }
}
node {
  name: "ExpandDims/dim"
  op: "Const"
  attr {
    key: "_output_shapes"
    value {
      list {
        shape {
        }
      }
    }
  }
  attr {
    key: "dtype"
    value {
      type: DT_INT32
    }
  }
  attr {
    key: "value"
    value {
      tensor {
        dtype: DT_INT32
        tensor_shape {
        }
        int_val: 0
      }
    }
  }
}
node {
  name: "ExpandDims"
  op: "ExpandDims"
  input: "case/cond/Merge"
  input: "ExpandDims/dim"
  attr {
    key: "T"
    value {
      type: DT_UINT8
    }
  }
  attr {
    key: "Tdim"
    value {
      type: DT_INT32
    }
  }
  attr {
    key: "_output_shapes"
    value {
      list {
        shape {
          dim {
            size: 1
          }
          dim {
            size: -1
          }
          dim {
            size: -1
          }
          dim {
            size: 3
          }
        }
      }
    }
  }
}
node {
  name: "ResizeNearestNeighbor/size"
  op: "Const"
  attr {
    key: "_output_shapes"
    value {
      list {
        shape {
          dim {
            size: 2
          }
        }
      }
    }
  }
  attr {
    key: "dtype"
    value {
      type: DT_INT32
    }
  }
  attr {
    key: "value"
    value {
      tensor {
        dtype: DT_INT32
        tensor_shape {
          dim {
            size: 2
          }
        }
        tensor_content: "\340\000\000\000\340\000\000\000"
      }
    }
  }
}
node {
  name: "ResizeNearestNeighbor"
  op: "ResizeNearestNeighbor"
  input: "ExpandDims"
  input: "ResizeNearestNeighbor/size"
  attr {
    key: "T"
    value {
      type: DT_UINT8
    }
  }
  attr {
    key: "_output_shapes"
    value {
      list {
        shape {
          dim {
            size: 1
          }
          dim {
            size: 224
          }
          dim {
            size: 224
          }
          dim {
            size: 3
          }
        }
      }
    }
  }
  attr {
    key: "align_corners"
    value {
      b: false
    }
  }
}
node {
  name: "Squeeze"
  op: "Squeeze"
  input: "ResizeNearestNeighbor"
  attr {
    key: "T"
    value {
      type: DT_UINT8
    }
  }
  attr {
    key: "_output_shapes"
    value {
      list {
        shape {
          dim {
            size: 224
          }
          dim {
            size: 224
          }
          dim {
            size: 3
          }
        }
      }
    }
  }
  attr {
    key: "squeeze_dims"
    value {
      list {
      }
    }
  }
}
node {
  name: "batch/Const"
  op: "Const"
  attr {
    key: "_output_shapes"
    value {
      list {
        shape {
        }
      }
    }
  }
  attr {
    key: "dtype"
    value {
      type: DT_BOOL
    }
  }
  attr {
    key: "value"
    value {
      tensor {
        dtype: DT_BOOL
        tensor_shape {
        }
        bool_val: true
      }
    }
  }
}
node {
  name: "batch/fifo_queue"
  op: "FIFOQueueV2"
  attr {
    key: "_output_shapes"
    value {
      list {
        shape {
        }
      }
    }
  }
  attr {
    key: "capacity"
    value {
      i: 32
    }
  }
  attr {
    key: "component_types"
    value {
      list {
        type: DT_FLOAT
        type: DT_UINT8
        type: DT_FLOAT
        type: DT_INT64
      }
    }
  }
  attr {
    key: "container"
    value {
      s: ""
    }
  }
  attr {
    key: "shapes"
    value {
      list {
        shape {
          dim {
            size: 224
          }
          dim {
            size: 224
          }
          dim {
            size: 3
          }
        }
        shape {
          dim {
            size: 224
          }
          dim {
            size: 224
          }
          dim {
            size: 3
          }
        }
        shape {
          dim {
            size: 2
          }
        }
        shape {
        }
      }
    }
  }
  attr {
    key: "shared_name"
    value {
      s: ""
    }
  }
}
node {
  name: "batch/fifo_queue_enqueue"
  op: "QueueEnqueueV2"
  input: "batch/fifo_queue"
  input: "distort_image/Mul"
  input: "Squeeze"
  input: "OneHotEncoding/one_hot"
  input: "Reshape"
  attr {
    key: "Tcomponents"
    value {
      list {
        type: DT_FLOAT
        type: DT_UINT8
        type: DT_FLOAT
        type: DT_INT64
      }
    }
  }
  attr {
    key: "timeout_ms"
    value {
      i: -1
    }
  }
}
node {
  name: "batch/fifo_queue_Close"
  op: "QueueCloseV2"
  input: "batch/fifo_queue"
  attr {
    key: "cancel_pending_enqueues"
    value {
      b: false
    }
  }
}
node {
  name: "batch/fifo_queue_Close_1"
  op: "QueueCloseV2"
  input: "batch/fifo_queue"
  attr {
    key: "cancel_pending_enqueues"
    value {
      b: true
    }
  }
}
node {
  name: "batch/fifo_queue_Size"
  op: "QueueSizeV2"
  input: "batch/fifo_queue"
  attr {
    key: "_output_shapes"
    value {
      list {
        shape {
        }
      }
    }
  }
}
node {
  name: "batch/ToFloat"
  op: "Cast"
  input: "batch/fifo_queue_Size"
  attr {
    key: "DstT"
    value {
      type: DT_FLOAT
    }
  }
  attr {
    key: "SrcT"
    value {
      type: DT_INT32
    }
  }
  attr {
    key: "_output_shapes"
    value {
      list {
        shape {
        }
      }
    }
  }
}
node {
  name: "batch/mul/y"
  op: "Const"
  attr {
    key: "_output_shapes"
    value {
      list {
        shape {
        }
      }
    }
  }
  attr {
    key: "dtype"
    value {
      type: DT_FLOAT
    }
  }
  attr {
    key: "value"
    value {
      tensor {
        dtype: DT_FLOAT
        tensor_shape {
        }
        float_val: 0.03125
      }
    }
  }
}
node {
  name: "batch/mul"
  op: "Mul"
  input: "batch/ToFloat"
  input: "batch/mul/y"
  attr {
    key: "T"
    value {
      type: DT_FLOAT
    }
  }
  attr {
    key: "_output_shapes"
    value {
      list {
        shape {
        }
      }
    }
  }
}
node {
  name: "batch/fraction_of_32_full/tags"
  op: "Const"
  attr {
    key: "_output_shapes"
    value {
      list {
        shape {
        }
      }
    }
  }
  attr {
    key: "dtype"
    value {
      type: DT_STRING
    }
  }
  attr {
    key: "value"
    value {
      tensor {
        dtype: DT_STRING
        tensor_shape {
        }
        string_val: "batch/fraction_of_32_full"
      }
    }
  }
}
node {
  name: "batch/fraction_of_32_full"
  op: "ScalarSummary"
  input: "batch/fraction_of_32_full/tags"
  input: "batch/mul"
  attr {
    key: "T"
    value {
      type: DT_FLOAT
    }
  }
  attr {
    key: "_output_shapes"
    value {
      list {
        shape {
        }
      }
    }
  }
}
node {
  name: "batch/n"
  op: "Const"
  attr {
    key: "_output_shapes"
    value {
      list {
        shape {
        }
      }
    }
  }
  attr {
    key: "dtype"
    value {
      type: DT_INT32
    }
  }
  attr {
    key: "value"
    value {
      tensor {
        dtype: DT_INT32
        tensor_shape {
        }
        int_val: 8
      }
    }
  }
}
node {
  name: "batch"
  op: "QueueDequeueUpToV2"
  input: "batch/fifo_queue"
  input: "batch/n"
  attr {
    key: "_output_shapes"
    value {
      list {
        shape {
          dim {
            size: -1
          }
          dim {
            size: 224
          }
          dim {
            size: 224
          }
          dim {
            size: 3
          }
        }
        shape {
          dim {
            size: -1
          }
          dim {
            size: 224
          }
          dim {
            size: 224
          }
          dim {
            size: 3
          }
        }
        shape {
          dim {
            size: -1
          }
          dim {
            size: 2
          }
        }
        shape {
          dim {
            size: -1
          }
        }
      }
    }
  }
  attr {
    key: "component_types"
    value {
      list {
        type: DT_FLOAT
        type: DT_UINT8
        type: DT_FLOAT
        type: DT_INT64
      }
    }
  }
  attr {
    key: "timeout_ms"
    value {
      i: -1
    }
  }
}
node {
  name: "MobilenetV1/Conv2d_0/weights/Initializer/truncated_normal/shape"
  op: "Const"
  attr {
    key: "_class"
    value {
      list {
        s: "loc:@MobilenetV1/Conv2d_0/weights"
      }
    }
  }
  attr {
    key: "_output_shapes"
    value {
      list {
        shape {
          dim {
            size: 4
          }
        }
      }
    }
  }
  attr {
    key: "dtype"
    value {
      type: DT_INT32
    }
  }
  attr {
    key: "value"
    value {
      tensor {
        dtype: DT_INT32
        tensor_shape {
          dim {
            size: 4
          }
        }
        tensor_content: "\003\000\000\000\003\000\000\000\003\000\000\000\020\000\000\000"
      }
    }
  }
}
node {
  name: "MobilenetV1/Conv2d_0/weights/Initializer/truncated_normal/mean"
  op: "Const"
  attr {
    key: "_class"
    value {
      list {
        s: "loc:@MobilenetV1/Conv2d_0/weights"
      }
    }
  }
  attr {
    key: "_output_shapes"
    value {
      list {
        shape {
        }
      }
    }
  }
  attr {
    key: "dtype"
    value {
      type: DT_FLOAT
    }
  }
  attr {
    key: "value"
    value {
      tensor {
        dtype: DT_FLOAT
        tensor_shape {
        }
        float_val: 0.0
      }
    }
  }
}
node {
  name: "MobilenetV1/Conv2d_0/weights/Initializer/truncated_normal/stddev"
  op: "Const"
  attr {
    key: "_class"
    value {
      list {
        s: "loc:@MobilenetV1/Conv2d_0/weights"
      }
    }
  }
  attr {
    key: "_output_shapes"
    value {
      list {
        shape {
        }
      }
    }
  }
  attr {
    key: "dtype"
    value {
      type: DT_FLOAT
    }
  }
  attr {
    key: "value"
    value {
      tensor {
        dtype: DT_FLOAT
        tensor_shape {
        }
        float_val: 0.09000000357627869
      }
    }
  }
}
node {
  name: "MobilenetV1/Conv2d_0/weights/Initializer/truncated_normal/TruncatedNormal"
  op: "TruncatedNormal"
  input: "MobilenetV1/Conv2d_0/weights/Initializer/truncated_normal/shape"
  attr {
    key: "T"
    value {
      type: DT_INT32
    }
  }
  attr {
    key: "_class"
    value {
      list {
        s: "loc:@MobilenetV1/Conv2d_0/weights"
      }
    }
  }
  attr {
    key: "_output_shapes"
    value {
      list {
        shape {
          dim {
            size: 3
          }
          dim {
            size: 3
          }
          dim {
            size: 3
          }
          dim {
            size: 16
          }
        }
      }
    }
  }
  attr {
    key: "dtype"
    value {
      type: DT_FLOAT
    }
  }
  attr {
    key: "seed"
    value {
      i: 0
    }
  }
  attr {
    key: "seed2"
    value {
      i: 0
    }
  }
}
node {
  name: "MobilenetV1/Conv2d_0/weights/Initializer/truncated_normal/mul"
  op: "Mul"
  input: "MobilenetV1/Conv2d_0/weights/Initializer/truncated_normal/TruncatedNormal"
  input: "MobilenetV1/Conv2d_0/weights/Initializer/truncated_normal/stddev"
  attr {
    key: "T"
    value {
      type: DT_FLOAT
    }
  }
  attr {
    key: "_class"
    value {
      list {
        s: "loc:@MobilenetV1/Conv2d_0/weights"
      }
    }
  }
  attr {
    key: "_output_shapes"
    value {
      list {
        shape {
          dim {
            size: 3
          }
          dim {
            size: 3
          }
          dim {
            size: 3
          }
          dim {
            size: 16
          }
        }
      }
    }
  }
}
node {
  name: "MobilenetV1/Conv2d_0/weights/Initializer/truncated_normal"
  op: "Add"
  input: "MobilenetV1/Conv2d_0/weights/Initializer/truncated_normal/mul"
  input: "MobilenetV1/Conv2d_0/weights/Initializer/truncated_normal/mean"
  attr {
    key: "T"
    value {
      type: DT_FLOAT
    }
  }
  attr {
    key: "_class"
    value {
      list {
        s: "loc:@MobilenetV1/Conv2d_0/weights"
      }
    }
  }
  attr {
    key: "_output_shapes"
    value {
      list {
        shape {
          dim {
            size: 3
          }
          dim {
            size: 3
          }
          dim {
            size: 3
          }
          dim {
            size: 16
          }
        }
      }
    }
  }
}
node {
  name: "MobilenetV1/Conv2d_0/weights"
  op: "VariableV2"
  attr {
    key: "_class"
    value {
      list {
        s: "loc:@MobilenetV1/Conv2d_0/weights"
      }
    }
  }
  attr {
    key: "_output_shapes"
    value {
      list {
        shape {
          dim {
            size: 3
          }
          dim {
            size: 3
          }
          dim {
            size: 3
          }
          dim {
            size: 16
          }
        }
      }
    }
  }
  attr {
    key: "container"
    value {
      s: ""
    }
  }
  attr {
    key: "dtype"
    value {
      type: DT_FLOAT
    }
  }
  attr {
    key: "shape"
    value {
      shape {
        dim {
          size: 3
        }
        dim {
          size: 3
        }
        dim {
          size: 3
        }
        dim {
          size: 16
        }
      }
    }
  }
  attr {
    key: "shared_name"
    value {
      s: ""
    }
  }
}
node {
  name: "MobilenetV1/Conv2d_0/weights/Assign"
  op: "Assign"
  input: "MobilenetV1/Conv2d_0/weights"
  input: "MobilenetV1/Conv2d_0/weights/Initializer/truncated_normal"
  attr {
    key: "T"
    value {
      type: DT_FLOAT
    }
  }
  attr {
    key: "_class"
    value {
      list {
        s: "loc:@MobilenetV1/Conv2d_0/weights"
      }
    }
  }
  attr {
    key: "_output_shapes"
    value {
      list {
        shape {
          dim {
            size: 3
          }
          dim {
            size: 3
          }
          dim {
            size: 3
          }
          dim {
            size: 16
          }
        }
      }
    }
  }
  attr {
    key: "use_locking"
    value {
      b: true
    }
  }
  attr {
    key: "validate_shape"
    value {
      b: true
    }
  }
}
node {
  name: "MobilenetV1/Conv2d_0/weights/read"
  op: "Identity"
  input: "MobilenetV1/Conv2d_0/weights"
  attr {
    key: "T"
    value {
      type: DT_FLOAT
    }
  }
  attr {
    key: "_class"
    value {
      list {
        s: "loc:@MobilenetV1/Conv2d_0/weights"
      }
    }
  }
  attr {
    key: "_output_shapes"
    value {
      list {
        shape {
          dim {
            size: 3
          }
          dim {
            size: 3
          }
          dim {
            size: 3
          }
          dim {
            size: 16
          }
        }
      }
    }
  }
}
node {
  name: "MobilenetV1/MobilenetV1/Conv2d_0/kernel/Regularizer/l2_regularizer/scale"
  op: "Const"
  attr {
    key: "_class"
    value {
      list {
        s: "loc:@MobilenetV1/Conv2d_0/weights"
      }
    }
  }
  attr {
    key: "_output_shapes"
    value {
      list {
        shape {
        }
      }
    }
  }
  attr {
    key: "dtype"
    value {
      type: DT_FLOAT
    }
  }
  attr {
    key: "value"
    value {
      tensor {
        dtype: DT_FLOAT
        tensor_shape {
        }
        float_val: 3.9999998989515007e-05
      }
    }
  }
}
node {
  name: "MobilenetV1/MobilenetV1/Conv2d_0/kernel/Regularizer/l2_regularizer/L2Loss"
  op: "L2Loss"
  input: "MobilenetV1/Conv2d_0/weights/read"
  attr {
    key: "T"
    value {
      type: DT_FLOAT
    }
  }
  attr {
    key: "_class"
    value {
      list {
        s: "loc:@MobilenetV1/Conv2d_0/weights"
      }
    }
  }
  attr {
    key: "_output_shapes"
    value {
      list {
        shape {
        }
      }
    }
  }
}
node {
  name: "MobilenetV1/MobilenetV1/Conv2d_0/kernel/Regularizer/l2_regularizer"
  op: "Mul"
  input: "MobilenetV1/MobilenetV1/Conv2d_0/kernel/Regularizer/l2_regularizer/scale"
  input: "MobilenetV1/MobilenetV1/Conv2d_0/kernel/Regularizer/l2_regularizer/L2Loss"
  attr {
    key: "T"
    value {
      type: DT_FLOAT
    }
  }
  attr {
    key: "_class"
    value {
      list {
        s: "loc:@MobilenetV1/Conv2d_0/weights"
      }
    }
  }
  attr {
    key: "_output_shapes"
    value {
      list {
        shape {
        }
      }
    }
  }
}
node {
  name: "MobilenetV1/MobilenetV1/Conv2d_0/dilation_rate"
  op: "Const"
  attr {
    key: "_output_shapes"
    value {
      list {
        shape {
          dim {
            size: 2
          }
        }
      }
    }
  }
  attr {
    key: "dtype"
    value {
      type: DT_INT32
    }
  }
  attr {
    key: "value"
    value {
      tensor {
        dtype: DT_INT32
        tensor_shape {
          dim {
            size: 2
          }
        }
        tensor_content: "\001\000\000\000\001\000\000\000"
      }
    }
  }
}
node {
  name: "MobilenetV1/MobilenetV1/Conv2d_0/Conv2D"
  op: "Conv2D"
  input: "batch"
  input: "MobilenetV1/Conv2d_0/weights/read"
  attr {
    key: "T"
    value {
      type: DT_FLOAT
    }
  }
  attr {
    key: "_output_shapes"
    value {
      list {
        shape {
          dim {
            size: -1
          }
          dim {
            size: 112
          }
          dim {
            size: 112
          }
          dim {
            size: 16
          }
        }
      }
    }
  }
  attr {
    key: "data_format"
    value {
      s: "NHWC"
    }
  }
  attr {
    key: "dilations"
    value {
      list {
        i: 1
        i: 1
        i: 1
        i: 1
      }
    }
  }
  attr {
    key: "padding"
    value {
      s: "SAME"
    }
  }
  attr {
    key: "strides"
    value {
      list {
        i: 1
        i: 2
        i: 2
        i: 1
      }
    }
  }
  attr {
    key: "use_cudnn_on_gpu"
    value {
      b: true
    }
  }
}
node {
  name: "MobilenetV1/Conv2d_0/BatchNorm/gamma/Initializer/ones/shape_as_tensor"
  op: "Const"
  attr {
    key: "_class"
    value {
      list {
        s: "loc:@MobilenetV1/Conv2d_0/BatchNorm/gamma"
      }
    }
  }
  attr {
    key: "_output_shapes"
    value {
      list {
        shape {
          dim {
            size: 1
          }
        }
      }
    }
  }
  attr {
    key: "dtype"
    value {
      type: DT_INT32
    }
  }
  attr {
    key: "value"
    value {
      tensor {
        dtype: DT_INT32
        tensor_shape {
          dim {
            size: 1
          }
        }
        int_val: 16
      }
    }
  }
}
node {
  name: "MobilenetV1/Conv2d_0/BatchNorm/gamma/Initializer/ones/Const"
  op: "Const"
  attr {
    key: "_class"
    value {
      list {
        s: "loc:@MobilenetV1/Conv2d_0/BatchNorm/gamma"
      }
    }
  }
  attr {
    key: "_output_shapes"
    value {
      list {
        shape {
        }
      }
    }
  }
  attr {
    key: "dtype"
    value {
      type: DT_FLOAT
    }
  }
  attr {
    key: "value"
    value {
      tensor {
        dtype: DT_FLOAT
        tensor_shape {
        }
        float_val: 1.0
      }
    }
  }
}
node {
  name: "MobilenetV1/Conv2d_0/BatchNorm/gamma/Initializer/ones"
  op: "Fill"
  input: "MobilenetV1/Conv2d_0/BatchNorm/gamma/Initializer/ones/shape_as_tensor"
  input: "MobilenetV1/Conv2d_0/BatchNorm/gamma/Initializer/ones/Const"
  attr {
    key: "T"
    value {
      type: DT_FLOAT
    }
  }
  attr {
    key: "_class"
    value {
      list {
        s: "loc:@MobilenetV1/Conv2d_0/BatchNorm/gamma"
      }
    }
  }
  attr {
    key: "_output_shapes"
    value {
      list {
        shape {
          dim {
            size: 16
          }
        }
      }
    }
  }
  attr {
    key: "index_type"
    value {
      type: DT_INT32
    }
  }
}
node {
  name: "MobilenetV1/Conv2d_0/BatchNorm/gamma"
  op: "VariableV2"
  attr {
    key: "_class"
    value {
      list {
        s: "loc:@MobilenetV1/Conv2d_0/BatchNorm/gamma"
      }
    }
  }
  attr {
    key: "_output_shapes"
    value {
      list {
        shape {
          dim {
            size: 16
          }
        }
      }
    }
  }
  attr {
    key: "container"
    value {
      s: ""
    }
  }
  attr {
    key: "dtype"
    value {
      type: DT_FLOAT
    }
  }
  attr {
    key: "shape"
    value {
      shape {
        dim {
          size: 16
        }
      }
    }
  }
  attr {
    key: "shared_name"
    value {
      s: ""
    }
  }
}
node {
  name: "MobilenetV1/Conv2d_0/BatchNorm/gamma/Assign"
  op: "Assign"
  input: "MobilenetV1/Conv2d_0/BatchNorm/gamma"
  input: "MobilenetV1/Conv2d_0/BatchNorm/gamma/Initializer/ones"
  attr {
    key: "T"
    value {
      type: DT_FLOAT
    }
  }
  attr {
    key: "_class"
    value {
      list {
        s: "loc:@MobilenetV1/Conv2d_0/BatchNorm/gamma"
      }
    }
  }
  attr {
    key: "_output_shapes"
    value {
      list {
        shape {
          dim {
            size: 16
          }
        }
      }
    }
  }
  attr {
    key: "use_locking"
    value {
      b: true
    }
  }
  attr {
    key: "validate_shape"
    value {
      b: true
    }
  }
}
node {
  name: "MobilenetV1/Conv2d_0/BatchNorm/gamma/read"
  op: "Identity"
  input: "MobilenetV1/Conv2d_0/BatchNorm/gamma"
  attr {
    key: "T"
    value {
      type: DT_FLOAT
    }
  }
  attr {
    key: "_class"
    value {
      list {
        s: "loc:@MobilenetV1/Conv2d_0/BatchNorm/gamma"
      }
    }
  }
  attr {
    key: "_output_shapes"
    value {
      list {
        shape {
          dim {
            size: 16
          }
        }
      }
    }
  }
}
node {
  name: "MobilenetV1/Conv2d_0/BatchNorm/beta/Initializer/zeros/shape_as_tensor"
  op: "Const"
  attr {
    key: "_class"
    value {
      list {
        s: "loc:@MobilenetV1/Conv2d_0/BatchNorm/beta"
      }
    }
  }
  attr {
    key: "_output_shapes"
    value {
      list {
        shape {
          dim {
            size: 1
          }
        }
      }
    }
  }
  attr {
    key: "dtype"
    value {
      type: DT_INT32
    }
  }
  attr {
    key: "value"
    value {
      tensor {
        dtype: DT_INT32
        tensor_shape {
          dim {
            size: 1
          }
        }
        int_val: 16
      }
    }
  }
}
node {
  name: "MobilenetV1/Conv2d_0/BatchNorm/beta/Initializer/zeros/Const"
  op: "Const"
  attr {
    key: "_class"
    value {
      list {
        s: "loc:@MobilenetV1/Conv2d_0/BatchNorm/beta"
      }
    }
  }
  attr {
    key: "_output_shapes"
    value {
      list {
        shape {
        }
      }
    }
  }
  attr {
    key: "dtype"
    value {
      type: DT_FLOAT
    }
  }
  attr {
    key: "value"
    value {
      tensor {
        dtype: DT_FLOAT
        tensor_shape {
        }
        float_val: 0.0
      }
    }
  }
}
node {
  name: "MobilenetV1/Conv2d_0/BatchNorm/beta/Initializer/zeros"
  op: "Fill"
  input: "MobilenetV1/Conv2d_0/BatchNorm/beta/Initializer/zeros/shape_as_tensor"
  input: "MobilenetV1/Conv2d_0/BatchNorm/beta/Initializer/zeros/Const"
  attr {
    key: "T"
    value {
      type: DT_FLOAT
    }
  }
  attr {
    key: "_class"
    value {
      list {
        s: "loc:@MobilenetV1/Conv2d_0/BatchNorm/beta"
      }
    }
  }
  attr {
    key: "_output_shapes"
    value {
      list {
        shape {
          dim {
            size: 16
          }
        }
      }
    }
  }
  attr {
    key: "index_type"
    value {
      type: DT_INT32
    }
  }
}
node {
  name: "MobilenetV1/Conv2d_0/BatchNorm/beta"
  op: "VariableV2"
  attr {
    key: "_class"
    value {
      list {
        s: "loc:@MobilenetV1/Conv2d_0/BatchNorm/beta"
      }
    }
  }
  attr {
    key: "_output_shapes"
    value {
      list {
        shape {
          dim {
            size: 16
          }
        }
      }
    }
  }
  attr {
    key: "container"
    value {
      s: ""
    }
  }
  attr {
    key: "dtype"
    value {
      type: DT_FLOAT
    }
  }
  attr {
    key: "shape"
    value {
      shape {
        dim {
          size: 16
        }
      }
    }
  }
  attr {
    key: "shared_name"
    value {
      s: ""
    }
  }
}
node {
  name: "MobilenetV1/Conv2d_0/BatchNorm/beta/Assign"
  op: "Assign"
  input: "MobilenetV1/Conv2d_0/BatchNorm/beta"
  input: "MobilenetV1/Conv2d_0/BatchNorm/beta/Initializer/zeros"
  attr {
    key: "T"
    value {
      type: DT_FLOAT
    }
  }
  attr {
    key: "_class"
    value {
      list {
        s: "loc:@MobilenetV1/Conv2d_0/BatchNorm/beta"
      }
    }
  }
  attr {
    key: "_output_shapes"
    value {
      list {
        shape {
          dim {
            size: 16
          }
        }
      }
    }
  }
  attr {
    key: "use_locking"
    value {
      b: true
    }
  }
  attr {
    key: "validate_shape"
    value {
      b: true
    }
  }
}
node {
  name: "MobilenetV1/Conv2d_0/BatchNorm/beta/read"
  op: "Identity"
  input: "MobilenetV1/Conv2d_0/BatchNorm/beta"
  attr {
    key: "T"
    value {
      type: DT_FLOAT
    }
  }
  attr {
    key: "_class"
    value {
      list {
        s: "loc:@MobilenetV1/Conv2d_0/BatchNorm/beta"
      }
    }
  }
  attr {
    key: "_output_shapes"
    value {
      list {
        shape {
          dim {
            size: 16
          }
        }
      }
    }
  }
}
node {
  name: "MobilenetV1/Conv2d_0/BatchNorm/moving_mean/Initializer/zeros/shape_as_tensor"
  op: "Const"
  attr {
    key: "_class"
    value {
      list {
        s: "loc:@MobilenetV1/Conv2d_0/BatchNorm/moving_mean"
      }
    }
  }
  attr {
    key: "_output_shapes"
    value {
      list {
        shape {
          dim {
            size: 1
          }
        }
      }
    }
  }
  attr {
    key: "dtype"
    value {
      type: DT_INT32
    }
  }
  attr {
    key: "value"
    value {
      tensor {
        dtype: DT_INT32
        tensor_shape {
          dim {
            size: 1
          }
        }
        int_val: 16
      }
    }
  }
}
node {
  name: "MobilenetV1/Conv2d_0/BatchNorm/moving_mean/Initializer/zeros/Const"
  op: "Const"
  attr {
    key: "_class"
    value {
      list {
        s: "loc:@MobilenetV1/Conv2d_0/BatchNorm/moving_mean"
      }
    }
  }
  attr {
    key: "_output_shapes"
    value {
      list {
        shape {
        }
      }
    }
  }
  attr {
    key: "dtype"
    value {
      type: DT_FLOAT
    }
  }
  attr {
    key: "value"
    value {
      tensor {
        dtype: DT_FLOAT
        tensor_shape {
        }
        float_val: 0.0
      }
    }
  }
}
node {
  name: "MobilenetV1/Conv2d_0/BatchNorm/moving_mean/Initializer/zeros"
  op: "Fill"
  input: "MobilenetV1/Conv2d_0/BatchNorm/moving_mean/Initializer/zeros/shape_as_tensor"
  input: "MobilenetV1/Conv2d_0/BatchNorm/moving_mean/Initializer/zeros/Const"
  attr {
    key: "T"
    value {
      type: DT_FLOAT
    }
  }
  attr {
    key: "_class"
    value {
      list {
        s: "loc:@MobilenetV1/Conv2d_0/BatchNorm/moving_mean"
      }
    }
  }
  attr {
    key: "_output_shapes"
    value {
      list {
        shape {
          dim {
            size: 16
          }
        }
      }
    }
  }
  attr {
    key: "index_type"
    value {
      type: DT_INT32
    }
  }
}
node {
  name: "MobilenetV1/Conv2d_0/BatchNorm/moving_mean"
  op: "VariableV2"
  attr {
    key: "_class"
    value {
      list {
        s: "loc:@MobilenetV1/Conv2d_0/BatchNorm/moving_mean"
      }
    }
  }
  attr {
    key: "_output_shapes"
    value {
      list {
        shape {
          dim {
            size: 16
          }
        }
      }
    }
  }
  attr {
    key: "container"
    value {
      s: ""
    }
  }
  attr {
    key: "dtype"
    value {
      type: DT_FLOAT
    }
  }
  attr {
    key: "shape"
    value {
      shape {
        dim {
          size: 16
        }
      }
    }
  }
  attr {
    key: "shared_name"
    value {
      s: ""
    }
  }
}
node {
  name: "MobilenetV1/Conv2d_0/BatchNorm/moving_mean/Assign"
  op: "Assign"
  input: "MobilenetV1/Conv2d_0/BatchNorm/moving_mean"
  input: "MobilenetV1/Conv2d_0/BatchNorm/moving_mean/Initializer/zeros"
  attr {
    key: "T"
    value {
      type: DT_FLOAT
    }
  }
  attr {
    key: "_class"
    value {
      list {
        s: "loc:@MobilenetV1/Conv2d_0/BatchNorm/moving_mean"
      }
    }
  }
  attr {
    key: "_output_shapes"
    value {
      list {
        shape {
          dim {
            size: 16
          }
        }
      }
    }
  }
  attr {
    key: "use_locking"
    value {
      b: true
    }
  }
  attr {
    key: "validate_shape"
    value {
      b: true
    }
  }
}
node {
  name: "MobilenetV1/Conv2d_0/BatchNorm/moving_mean/read"
  op: "Identity"
  input: "MobilenetV1/Conv2d_0/BatchNorm/moving_mean"
  attr {
    key: "T"
    value {
      type: DT_FLOAT
    }
  }
  attr {
    key: "_class"
    value {
      list {
        s: "loc:@MobilenetV1/Conv2d_0/BatchNorm/moving_mean"
      }
    }
  }
  attr {
    key: "_output_shapes"
    value {
      list {
        shape {
          dim {
            size: 16
          }
        }
      }
    }
  }
}
node {
  name: "MobilenetV1/Conv2d_0/BatchNorm/moving_variance/Initializer/ones/shape_as_tensor"
  op: "Const"
  attr {
    key: "_class"
    value {
      list {
        s: "loc:@MobilenetV1/Conv2d_0/BatchNorm/moving_variance"
      }
    }
  }
  attr {
    key: "_output_shapes"
    value {
      list {
        shape {
          dim {
            size: 1
          }
        }
      }
    }
  }
  attr {
    key: "dtype"
    value {
      type: DT_INT32
    }
  }
  attr {
    key: "value"
    value {
      tensor {
        dtype: DT_INT32
        tensor_shape {
          dim {
            size: 1
          }
        }
        int_val: 16
      }
    }
  }
}
node {
  name: "MobilenetV1/Conv2d_0/BatchNorm/moving_variance/Initializer/ones/Const"
  op: "Const"
  attr {
    key: "_class"
    value {
      list {
        s: "loc:@MobilenetV1/Conv2d_0/BatchNorm/moving_variance"
      }
    }
  }
  attr {
    key: "_output_shapes"
    value {
      list {
        shape {
        }
      }
    }
  }
  attr {
    key: "dtype"
    value {
      type: DT_FLOAT
    }
  }
  attr {
    key: "value"
    value {
      tensor {
        dtype: DT_FLOAT
        tensor_shape {
        }
        float_val: 1.0
      }
    }
  }
}
node {
  name: "MobilenetV1/Conv2d_0/BatchNorm/moving_variance/Initializer/ones"
  op: "Fill"
  input: "MobilenetV1/Conv2d_0/BatchNorm/moving_variance/Initializer/ones/shape_as_tensor"
  input: "MobilenetV1/Conv2d_0/BatchNorm/moving_variance/Initializer/ones/Const"
  attr {
    key: "T"
    value {
      type: DT_FLOAT
    }
  }
  attr {
    key: "_class"
    value {
      list {
        s: "loc:@MobilenetV1/Conv2d_0/BatchNorm/moving_variance"
      }
    }
  }
  attr {
    key: "_output_shapes"
    value {
      list {
        shape {
          dim {
            size: 16
          }
        }
      }
    }
  }
  attr {
    key: "index_type"
    value {
      type: DT_INT32
    }
  }
}
node {
  name: "MobilenetV1/Conv2d_0/BatchNorm/moving_variance"
  op: "VariableV2"
  attr {
    key: "_class"
    value {
      list {
        s: "loc:@MobilenetV1/Conv2d_0/BatchNorm/moving_variance"
      }
    }
  }
  attr {
    key: "_output_shapes"
    value {
      list {
        shape {
          dim {
            size: 16
          }
        }
      }
    }
  }
  attr {
    key: "container"
    value {
      s: ""
    }
  }
  attr {
    key: "dtype"
    value {
      type: DT_FLOAT
    }
  }
  attr {
    key: "shape"
    value {
      shape {
        dim {
          size: 16
        }
      }
    }
  }
  attr {
    key: "shared_name"
    value {
      s: ""
    }
  }
}
node {
  name: "MobilenetV1/Conv2d_0/BatchNorm/moving_variance/Assign"
  op: "Assign"
  input: "MobilenetV1/Conv2d_0/BatchNorm/moving_variance"
  input: "MobilenetV1/Conv2d_0/BatchNorm/moving_variance/Initializer/ones"
  attr {
    key: "T"
    value {
      type: DT_FLOAT
    }
  }
  attr {
    key: "_class"
    value {
      list {
        s: "loc:@MobilenetV1/Conv2d_0/BatchNorm/moving_variance"
      }
    }
  }
  attr {
    key: "_output_shapes"
    value {
      list {
        shape {
          dim {
            size: 16
          }
        }
      }
    }
  }
  attr {
    key: "use_locking"
    value {
      b: true
    }
  }
  attr {
    key: "validate_shape"
    value {
      b: true
    }
  }
}
node {
  name: "MobilenetV1/Conv2d_0/BatchNorm/moving_variance/read"
  op: "Identity"
  input: "MobilenetV1/Conv2d_0/BatchNorm/moving_variance"
  attr {
    key: "T"
    value {
      type: DT_FLOAT
    }
  }
  attr {
    key: "_class"
    value {
      list {
        s: "loc:@MobilenetV1/Conv2d_0/BatchNorm/moving_variance"
      }
    }
  }
  attr {
    key: "_output_shapes"
    value {
      list {
        shape {
          dim {
            size: 16
          }
        }
      }
    }
  }
}
node {
  name: "MobilenetV1/MobilenetV1/Conv2d_0/BatchNorm/Const"
  op: "Const"
  attr {
…
      list {
        shape {
          dim {
            size: 256
          }
        }
      }
    }
  }
  attr {
    key: "use_locking"
    value {
      b: true
    }
  }
  attr {
    key: "validate_shape"
    value {
      b: true
    }
  }
}
node {
  name: "save_1/Assign_246"
  op: "Assign"
  input: "MobilenetV1/Conv2d_7_pointwise/BatchNorm/gamma/Adam"
  input: "save_1/RestoreV2:246"
  attr {
    key: "T"
    value {
      type: DT_FLOAT
    }
  }
  attr {
    key: "_class"
    value {
      list {
        s: "loc:@MobilenetV1/Conv2d_7_pointwise/BatchNorm/gamma"
      }
    }
  }
  attr {
    key: "_output_shapes"
    value {
      list {
        shape {
          dim {
            size: 256
          }
        }
      }
    }
  }
  attr {
    key: "use_locking"
    value {
      b: true
    }
  }
  attr {
    key: "validate_shape"
    value {
      b: true
    }
  }
}
node {
  name: "save_1/Assign_247"
  op: "Assign"
  input: "MobilenetV1/Conv2d_7_pointwise/BatchNorm/gamma/Adam_1"
  input: "save_1/RestoreV2:247"
  attr {
    key: "T"
    value {
      type: DT_FLOAT
    }
  }
  attr {
    key: "_class"
    value {
      list {
        s: "loc:@MobilenetV1/Conv2d_7_pointwise/BatchNorm/gamma"
      }
    }
  }
  attr {
    key: "_output_shapes"
    value {
      list {
        shape {
          dim {
            size: 256
          }
        }
      }
    }
  }
  attr {
    key: "use_locking"
    value {
      b: true
    }
  }
  attr {
    key: "validate_shape"
    value {
      b: true
    }
  }
}
node {
  name: "save_1/Assign_248"
  op: "Assign"
  input: "MobilenetV1/Conv2d_7_pointwise/BatchNorm/moving_mean"
  input: "save_1/RestoreV2:248"
  attr {
    key: "T"
    value {
      type: DT_FLOAT
    }
  }
  attr {
    key: "_class"
    value {
      list {
        s: "loc:@MobilenetV1/Conv2d_7_pointwise/BatchNorm/moving_mean"
      }
    }
  }
  attr {
    key: "_output_shapes"
    value {
      list {
        shape {
          dim {
            size: 256
          }
        }
      }
    }
  }
  attr {
    key: "use_locking"
    value {
      b: true
    }
  }
  attr {
    key: "validate_shape"
    value {
      b: true
    }
  }
}
node {
  name: "save_1/Assign_249"
  op: "Assign"
  input: "MobilenetV1/Conv2d_7_pointwise/BatchNorm/moving_variance"
  input: "save_1/RestoreV2:249"
  attr {
    key: "T"
    value {
      type: DT_FLOAT
    }
  }
  attr {
    key: "_class"
    value {
      list {
        s: "loc:@MobilenetV1/Conv2d_7_pointwise/BatchNorm/moving_variance"
      }
    }
  }
  attr {
    key: "_output_shapes"
    value {
      list {
        shape {
          dim {
            size: 256
          }
        }
      }
    }
  }
  attr {
    key: "use_locking"
    value {
      b: true
    }
  }
  attr {
    key: "validate_shape"
    value {
      b: true
    }
  }
}
node {
  name: "save_1/Assign_250"
  op: "Assign"
  input: "MobilenetV1/Conv2d_7_pointwise/weights"
  input: "save_1/RestoreV2:250"
  attr {
    key: "T"
    value {
      type: DT_FLOAT
    }
  }
  attr {
    key: "_class"
    value {
      list {
        s: "loc:@MobilenetV1/Conv2d_7_pointwise/weights"
      }
    }
  }
  attr {
    key: "_output_shapes"
    value {
      list {
        shape {
          dim {
            size: 1
          }
          dim {
            size: 1
          }
          dim {
            size: 256
          }
          dim {
            size: 256
          }
        }
      }
    }
  }
  attr {
    key: "use_locking"
    value {
      b: true
    }
  }
  attr {
    key: "validate_shape"
    value {
      b: true
    }
  }
}
node {
  name: "save_1/Assign_251"
  op: "Assign"
  input: "MobilenetV1/Conv2d_7_pointwise/weights/Adam"
  input: "save_1/RestoreV2:251"
  attr {
    key: "T"
    value {
      type: DT_FLOAT
    }
  }
  attr {
    key: "_class"
    value {
      list {
        s: "loc:@MobilenetV1/Conv2d_7_pointwise/weights"
      }
    }
  }
  attr {
    key: "_output_shapes"
    value {
      list {
        shape {
          dim {
            size: 1
          }
          dim {
            size: 1
          }
          dim {
            size: 256
          }
          dim {
            size: 256
          }
        }
      }
    }
  }
  attr {
    key: "use_locking"
    value {
      b: true
    }
  }
  attr {
    key: "validate_shape"
    value {
      b: true
    }
  }
}
node {
  name: "save_1/Assign_252"
  op: "Assign"
  input: "MobilenetV1/Conv2d_7_pointwise/weights/Adam_1"
  input: "save_1/RestoreV2:252"
  attr {
    key: "T"
    value {
      type: DT_FLOAT
    }
  }
  attr {
    key: "_class"
    value {
      list {
        s: "loc:@MobilenetV1/Conv2d_7_pointwise/weights"
      }
    }
  }
  attr {
    key: "_output_shapes"
    value {
      list {
        shape {
          dim {
            size: 1
          }
          dim {
            size: 1
          }
          dim {
            size: 256
          }
          dim {
            size: 256
          }
        }
      }
    }
  }
  attr {
    key: "use_locking"
    value {
      b: true
    }
  }
  attr {
    key: "validate_shape"
    value {
      b: true
    }
  }
}
node {
  name: "save_1/Assign_253"
  op: "Assign"
  input: "MobilenetV1/Conv2d_8_depthwise/BatchNorm/beta"
  input: "save_1/RestoreV2:253"
  attr {
    key: "T"
    value {
      type: DT_FLOAT
    }
  }
  attr {
    key: "_class"
    value {
      list {
        s: "loc:@MobilenetV1/Conv2d_8_depthwise/BatchNorm/beta"
      }
    }
  }
  attr {
    key: "_output_shapes"
    value {
      list {
        shape {
          dim {
            size: 256
          }
        }
      }
    }
  }
  attr {
    key: "use_locking"
    value {
      b: true
    }
  }
  attr {
    key: "validate_shape"
    value {
      b: true
    }
  }
}
node {
  name: "save_1/Assign_254"
  op: "Assign"
  input: "MobilenetV1/Conv2d_8_depthwise/BatchNorm/beta/Adam"
  input: "save_1/RestoreV2:254"
  attr {
    key: "T"
    value {
      type: DT_FLOAT
    }
  }
  attr {
    key: "_class"
    value {
      list {
        s: "loc:@MobilenetV1/Conv2d_8_depthwise/BatchNorm/beta"
      }
    }
  }
  attr {
    key: "_output_shapes"
    value {
      list {
        shape {
          dim {
            size: 256
          }
        }
      }
    }
  }
  attr {
    key: "use_locking"
    value {
      b: true
    }
  }
  attr {
    key: "validate_shape"
    value {
      b: true
    }
  }
}
node {
  name: "save_1/Assign_255"
  op: "Assign"
  input: "MobilenetV1/Conv2d_8_depthwise/BatchNorm/beta/Adam_1"
  input: "save_1/RestoreV2:255"
  attr {
    key: "T"
    value {
      type: DT_FLOAT
    }
  }
  attr {
    key: "_class"
    value {
      list {
        s: "loc:@MobilenetV1/Conv2d_8_depthwise/BatchNorm/beta"
      }
    }
  }
  attr {
    key: "_output_shapes"
    value {
      list {
        shape {
          dim {
            size: 256
          }
        }
      }
    }
  }
  attr {
    key: "use_locking"
    value {
      b: true
    }
  }
  attr {
    key: "validate_shape"
    value {
      b: true
    }
  }
}
node {
  name: "save_1/Assign_256"
  op: "Assign"
  input: "MobilenetV1/Conv2d_8_depthwise/BatchNorm/gamma"
  input: "save_1/RestoreV2:256"
  attr {
    key: "T"
    value {
      type: DT_FLOAT
    }
  }
  attr {
    key: "_class"
    value {
      list {
        s: "loc:@MobilenetV1/Conv2d_8_depthwise/BatchNorm/gamma"
      }
    }
  }
  attr {
    key: "_output_shapes"
    value {
      list {
        shape {
          dim {
            size: 256
          }
        }
      }
    }
  }
  attr {
    key: "use_locking"
    value {
      b: true
    }
  }
  attr {
    key: "validate_shape"
    value {
      b: true
    }
  }
}
node {
  name: "save_1/Assign_257"
  op: "Assign"
  input: "MobilenetV1/Conv2d_8_depthwise/BatchNorm/gamma/Adam"
  input: "save_1/RestoreV2:257"
  attr {
    key: "T"
    value {
      type: DT_FLOAT
    }
  }
  attr {
    key: "_class"
    value {
      list {
        s: "loc:@MobilenetV1/Conv2d_8_depthwise/BatchNorm/gamma"
      }
    }
  }
  attr {
    key: "_output_shapes"
    value {
      list {
        shape {
          dim {
            size: 256
          }
        }
      }
    }
  }
  attr {
    key: "use_locking"
    value {
      b: true
    }
  }
  attr {
    key: "validate_shape"
    value {
      b: true
    }
  }
}
node {
  name: "save_1/Assign_258"
  op: "Assign"
  input: "MobilenetV1/Conv2d_8_depthwise/BatchNorm/gamma/Adam_1"
  input: "save_1/RestoreV2:258"
  attr {
    key: "T"
    value {
      type: DT_FLOAT
    }
  }
  attr {
    key: "_class"
    value {
      list {
        s: "loc:@MobilenetV1/Conv2d_8_depthwise/BatchNorm/gamma"
      }
    }
  }
  attr {
    key: "_output_shapes"
    value {
      list {
        shape {
          dim {
            size: 256
          }
        }
      }
    }
  }
  attr {
    key: "use_locking"
    value {
      b: true
    }
  }
  attr {
    key: "validate_shape"
    value {
      b: true
    }
  }
}
node {
  name: "save_1/Assign_259"
  op: "Assign"
  input: "MobilenetV1/Conv2d_8_depthwise/BatchNorm/moving_mean"
  input: "save_1/RestoreV2:259"
  attr {
    key: "T"
    value {
      type: DT_FLOAT
    }
  }
  attr {
    key: "_class"
    value {
      list {
        s: "loc:@MobilenetV1/Conv2d_8_depthwise/BatchNorm/moving_mean"
      }
    }
  }
  attr {
    key: "_output_shapes"
    value {
      list {
        shape {
          dim {
            size: 256
          }
        }
      }
    }
  }
  attr {
    key: "use_locking"
    value {
      b: true
    }
  }
  attr {
    key: "validate_shape"
    value {
      b: true
    }
  }
}
node {
  name: "save_1/Assign_260"
  op: "Assign"
  input: "MobilenetV1/Conv2d_8_depthwise/BatchNorm/moving_variance"
  input: "save_1/RestoreV2:260"
  attr {
    key: "T"
    value {
      type: DT_FLOAT
    }
  }
  attr {
    key: "_class"
    value {
      list {
        s: "loc:@MobilenetV1/Conv2d_8_depthwise/BatchNorm/moving_variance"
      }
    }
  }
  attr {
    key: "_output_shapes"
    value {
      list {
        shape {
          dim {
            size: 256
          }
        }
      }
    }
  }
  attr {
    key: "use_locking"
    value {
      b: true
    }
  }
  attr {
    key: "validate_shape"
    value {
      b: true
    }
  }
}
node {
  name: "save_1/Assign_261"
  op: "Assign"
  input: "MobilenetV1/Conv2d_8_depthwise/depthwise_weights"
  input: "save_1/RestoreV2:261"
  attr {
    key: "T"
    value {
      type: DT_FLOAT
    }
  }
  attr {
    key: "_class"
    value {
      list {
        s: "loc:@MobilenetV1/Conv2d_8_depthwise/depthwise_weights"
      }
    }
  }
  attr {
    key: "_output_shapes"
    value {
      list {
        shape {
          dim {
            size: 3
          }
          dim {
            size: 3
          }
          dim {
            size: 256
          }
          dim {
            size: 1
          }
        }
      }
    }
  }
  attr {
    key: "use_locking"
    value {
      b: true
    }
  }
  attr {
    key: "validate_shape"
    value {
      b: true
    }
  }
}
node {
  name: "save_1/Assign_262"
  op: "Assign"
  input: "MobilenetV1/Conv2d_8_depthwise/depthwise_weights/Adam"
  input: "save_1/RestoreV2:262"
  attr {
    key: "T"
    value {
      type: DT_FLOAT
    }
  }
  attr {
    key: "_class"
    value {
      list {
        s: "loc:@MobilenetV1/Conv2d_8_depthwise/depthwise_weights"
      }
    }
  }
  attr {
    key: "_output_shapes"
    value {
      list {
        shape {
          dim {
            size: 3
          }
          dim {
            size: 3
          }
          dim {
            size: 256
          }
          dim {
            size: 1
          }
        }
      }
    }
  }
  attr {
    key: "use_locking"
    value {
      b: true
    }
  }
  attr {
    key: "validate_shape"
    value {
      b: true
    }
  }
}
node {
  name: "save_1/Assign_263"
  op: "Assign"
  input: "MobilenetV1/Conv2d_8_depthwise/depthwise_weights/Adam_1"
  input: "save_1/RestoreV2:263"
  attr {
    key: "T"
    value {
      type: DT_FLOAT
    }
  }
  attr {
    key: "_class"
    value {
      list {
        s: "loc:@MobilenetV1/Conv2d_8_depthwise/depthwise_weights"
      }
    }
  }
  attr {
    key: "_output_shapes"
    value {
      list {
        shape {
          dim {
            size: 3
          }
          dim {
            size: 3
          }
          dim {
            size: 256
          }
          dim {
            size: 1
          }
        }
      }
    }
  }
  attr {
    key: "use_locking"
    value {
      b: true
    }
  }
  attr {
    key: "validate_shape"
    value {
      b: true
    }
  }
}
node {
  name: "save_1/Assign_264"
  op: "Assign"
  input: "MobilenetV1/Conv2d_8_pointwise/BatchNorm/beta"
  input: "save_1/RestoreV2:264"
  attr {
    key: "T"
    value {
      type: DT_FLOAT
    }
  }
  attr {
    key: "_class"
    value {
      list {
        s: "loc:@MobilenetV1/Conv2d_8_pointwise/BatchNorm/beta"
      }
    }
  }
  attr {
    key: "_output_shapes"
    value {
      list {
        shape {
          dim {
            size: 256
          }
        }
      }
    }
  }
  attr {
    key: "use_locking"
    value {
      b: true
    }
  }
  attr {
    key: "validate_shape"
    value {
      b: true
    }
  }
}
node {
  name: "save_1/Assign_265"
  op: "Assign"
  input: "MobilenetV1/Conv2d_8_pointwise/BatchNorm/beta/Adam"
  input: "save_1/RestoreV2:265"
  attr {
    key: "T"
    value {
      type: DT_FLOAT
    }
  }
  attr {
    key: "_class"
    value {
      list {
        s: "loc:@MobilenetV1/Conv2d_8_pointwise/BatchNorm/beta"
      }
    }
  }
  attr {
    key: "_output_shapes"
    value {
      list {
        shape {
          dim {
            size: 256
          }
        }
      }
    }
  }
  attr {
    key: "use_locking"
    value {
      b: true
    }
  }
  attr {
    key: "validate_shape"
    value {
      b: true
    }
  }
}
node {
  name: "save_1/Assign_266"
  op: "Assign"
  input: "MobilenetV1/Conv2d_8_pointwise/BatchNorm/beta/Adam_1"
  input: "save_1/RestoreV2:266"
  attr {
    key: "T"
    value {
      type: DT_FLOAT
    }
  }
  attr {
    key: "_class"
    value {
      list {
        s: "loc:@MobilenetV1/Conv2d_8_pointwise/BatchNorm/beta"
      }
    }
  }
  attr {
    key: "_output_shapes"
    value {
      list {
        shape {
          dim {
            size: 256
          }
        }
      }
    }
  }
  attr {
    key: "use_locking"
    value {
      b: true
    }
  }
  attr {
    key: "validate_shape"
    value {
      b: true
    }
  }
}
node {
  name: "save_1/Assign_267"
  op: "Assign"
  input: "MobilenetV1/Conv2d_8_pointwise/BatchNorm/gamma"
  input: "save_1/RestoreV2:267"
  attr {
    key: "T"
    value {
      type: DT_FLOAT
    }
  }
  attr {
    key: "_class"
    value {
      list {
        s: "loc:@MobilenetV1/Conv2d_8_pointwise/BatchNorm/gamma"
      }
    }
  }
  attr {
    key: "_output_shapes"
    value {
      list {
        shape {
          dim {
            size: 256
          }
        }
      }
    }
  }
  attr {
    key: "use_locking"
    value {
      b: true
    }
  }
  attr {
    key: "validate_shape"
    value {
      b: true
    }
  }
}
node {
  name: "save_1/Assign_268"
  op: "Assign"
  input: "MobilenetV1/Conv2d_8_pointwise/BatchNorm/gamma/Adam"
  input: "save_1/RestoreV2:268"
  attr {
    key: "T"
    value {
      type: DT_FLOAT
    }
  }
  attr {
    key: "_class"
    value {
      list {
        s: "loc:@MobilenetV1/Conv2d_8_pointwise/BatchNorm/gamma"
      }
    }
  }
  attr {
    key: "_output_shapes"
    value {
      list {
        shape {
          dim {
            size: 256
          }
        }
      }
    }
  }
  attr {
    key: "use_locking"
    value {
      b: true
    }
  }
  attr {
    key: "validate_shape"
    value {
      b: true
    }
  }
}
node {
  name: "save_1/Assign_269"
  op: "Assign"
  input: "MobilenetV1/Conv2d_8_pointwise/BatchNorm/gamma/Adam_1"
  input: "save_1/RestoreV2:269"
  attr {
    key: "T"
    value {
      type: DT_FLOAT
    }
  }
  attr {
    key: "_class"
    value {
      list {
        s: "loc:@MobilenetV1/Conv2d_8_pointwise/BatchNorm/gamma"
      }
    }
  }
  attr {
    key: "_output_shapes"
    value {
      list {
        shape {
          dim {
            size: 256
          }
        }
      }
    }
  }
  attr {
    key: "use_locking"
    value {
      b: true
    }
  }
  attr {
    key: "validate_shape"
    value {
      b: true
    }
  }
}
node {
  name: "save_1/Assign_270"
  op: "Assign"
  input: "MobilenetV1/Conv2d_8_pointwise/BatchNorm/moving_mean"
  input: "save_1/RestoreV2:270"
  attr {
    key: "T"
    value {
      type: DT_FLOAT
    }
  }
  attr {
    key: "_class"
    value {
      list {
        s: "loc:@MobilenetV1/Conv2d_8_pointwise/BatchNorm/moving_mean"
      }
    }
  }
  attr {
    key: "_output_shapes"
    value {
      list {
        shape {
          dim {
            size: 256
          }
        }
      }
    }
  }
  attr {
    key: "use_locking"
    value {
      b: true
    }
  }
  attr {
    key: "validate_shape"
    value {
      b: true
    }
  }
}
node {
  name: "save_1/Assign_271"
  op: "Assign"
  input: "MobilenetV1/Conv2d_8_pointwise/BatchNorm/moving_variance"
  input: "save_1/RestoreV2:271"
  attr {
    key: "T"
    value {
      type: DT_FLOAT
    }
  }
  attr {
    key: "_class"
    value {
      list {
        s: "loc:@MobilenetV1/Conv2d_8_pointwise/BatchNorm/moving_variance"
      }
    }
  }
  attr {
    key: "_output_shapes"
    value {
      list {
        shape {
          dim {
            size: 256
          }
        }
      }
    }
  }
  attr {
    key: "use_locking"
    value {
      b: true
    }
  }
  attr {
    key: "validate_shape"
    value {
      b: true
    }
  }
}
node {
  name: "save_1/Assign_272"
  op: "Assign"
  input: "MobilenetV1/Conv2d_8_pointwise/weights"
  input: "save_1/RestoreV2:272"
  attr {
    key: "T"
    value {
      type: DT_FLOAT
    }
  }
  attr {
    key: "_class"
    value {
      list {
        s: "loc:@MobilenetV1/Conv2d_8_pointwise/weights"
      }
    }
  }
  attr {
    key: "_output_shapes"
    value {
      list {
        shape {
          dim {
            size: 1
          }
          dim {
            size: 1
          }
          dim {
            size: 256
          }
          dim {
            size: 256
          }
        }
      }
    }
  }
  attr {
    key: "use_locking"
    value {
      b: true
    }
  }
  attr {
    key: "validate_shape"
    value {
      b: true
    }
  }
}
node {
  name: "save_1/Assign_273"
  op: "Assign"
  input: "MobilenetV1/Conv2d_8_pointwise/weights/Adam"
  input: "save_1/RestoreV2:273"
  attr {
    key: "T"
    value {
      type: DT_FLOAT
    }
  }
  attr {
    key: "_class"
    value {
      list {
        s: "loc:@MobilenetV1/Conv2d_8_pointwise/weights"
      }
    }
  }
  attr {
    key: "_output_shapes"
    value {
      list {
        shape {
          dim {
            size: 1
          }
          dim {
            size: 1
          }
          dim {
            size: 256
          }
          dim {
            size: 256
          }
        }
      }
    }
  }
  attr {
    key: "use_locking"
    value {
      b: true
    }
  }
  attr {
    key: "validate_shape"
    value {
      b: true
    }
  }
}
node {
  name: "save_1/Assign_274"
  op: "Assign"
  input: "MobilenetV1/Conv2d_8_pointwise/weights/Adam_1"
  input: "save_1/RestoreV2:274"
  attr {
    key: "T"
    value {
      type: DT_FLOAT
    }
  }
  attr {
    key: "_class"
    value {
      list {
        s: "loc:@MobilenetV1/Conv2d_8_pointwise/weights"
      }
    }
  }
  attr {
    key: "_output_shapes"
    value {
      list {
        shape {
          dim {
            size: 1
          }
          dim {
            size: 1
          }
          dim {
            size: 256
          }
          dim {
            size: 256
          }
        }
      }
    }
  }
  attr {
    key: "use_locking"
    value {
      b: true
    }
  }
  attr {
    key: "validate_shape"
    value {
      b: true
    }
  }
}
node {
  name: "save_1/Assign_275"
  op: "Assign"
  input: "MobilenetV1/Conv2d_9_depthwise/BatchNorm/beta"
  input: "save_1/RestoreV2:275"
  attr {
    key: "T"
    value {
      type: DT_FLOAT
    }
  }
  attr {
    key: "_class"
    value {
      list {
        s: "loc:@MobilenetV1/Conv2d_9_depthwise/BatchNorm/beta"
      }
    }
  }
  attr {
    key: "_output_shapes"
    value {
      list {
        shape {
          dim {
            size: 256
          }
        }
      }
    }
  }
  attr {
    key: "use_locking"
    value {
      b: true
    }
  }
  attr {
    key: "validate_shape"
    value {
      b: true
    }
  }
}
node {
  name: "save_1/Assign_276"
  op: "Assign"
  input: "MobilenetV1/Conv2d_9_depthwise/BatchNorm/beta/Adam"
  input: "save_1/RestoreV2:276"
  attr {
    key: "T"
    value {
      type: DT_FLOAT
    }
  }
  attr {
    key: "_class"
    value {
      list {
        s: "loc:@MobilenetV1/Conv2d_9_depthwise/BatchNorm/beta"
      }
    }
  }
  attr {
    key: "_output_shapes"
    value {
      list {
        shape {
          dim {
            size: 256
          }
        }
      }
    }
  }
  attr {
    key: "use_locking"
    value {
      b: true
    }
  }
  attr {
    key: "validate_shape"
    value {
      b: true
    }
  }
}
node {
  name: "save_1/Assign_277"
  op: "Assign"
  input: "MobilenetV1/Conv2d_9_depthwise/BatchNorm/beta/Adam_1"
  input: "save_1/RestoreV2:277"
  attr {
    key: "T"
    value {
      type: DT_FLOAT
    }
  }
  attr {
    key: "_class"
    value {
      list {
        s: "loc:@MobilenetV1/Conv2d_9_depthwise/BatchNorm/beta"
      }
    }
  }
  attr {
    key: "_output_shapes"
    value {
      list {
        shape {
          dim {
            size: 256
          }
        }
      }
    }
  }
  attr {
    key: "use_locking"
    value {
      b: true
    }
  }
  attr {
    key: "validate_shape"
    value {
      b: true
    }
  }
}
node {
  name: "save_1/Assign_278"
  op: "Assign"
  input: "MobilenetV1/Conv2d_9_depthwise/BatchNorm/gamma"
  input: "save_1/RestoreV2:278"
  attr {
    key: "T"
    value {
      type: DT_FLOAT
    }
  }
  attr {
    key: "_class"
    value {
      list {
        s: "loc:@MobilenetV1/Conv2d_9_depthwise/BatchNorm/gamma"
      }
    }
  }
  attr {
    key: "_output_shapes"
    value {
      list {
        shape {
          dim {
            size: 256
          }
        }
      }
    }
  }
  attr {
    key: "use_locking"
    value {
      b: true
    }
  }
  attr {
    key: "validate_shape"
    value {
      b: true
    }
  }
}
node {
  name: "save_1/Assign_279"
  op: "Assign"
  input: "MobilenetV1/Conv2d_9_depthwise/BatchNorm/gamma/Adam"
  input: "save_1/RestoreV2:279"
  attr {
    key: "T"
    value {
      type: DT_FLOAT
    }
  }
  attr {
    key: "_class"
    value {
      list {
        s: "loc:@MobilenetV1/Conv2d_9_depthwise/BatchNorm/gamma"
      }
    }
  }
  attr {
    key: "_output_shapes"
    value {
      list {
        shape {
          dim {
            size: 256
          }
        }
      }
    }
  }
  attr {
    key: "use_locking"
    value {
      b: true
    }
  }
  attr {
    key: "validate_shape"
    value {
      b: true
    }
  }
}
node {
  name: "save_1/Assign_280"
  op: "Assign"
  input: "MobilenetV1/Conv2d_9_depthwise/BatchNorm/gamma/Adam_1"
  input: "save_1/RestoreV2:280"
  attr {
    key: "T"
    value {
      type: DT_FLOAT
    }
  }
  attr {
    key: "_class"
    value {
      list {
        s: "loc:@MobilenetV1/Conv2d_9_depthwise/BatchNorm/gamma"
      }
    }
  }
  attr {
    key: "_output_shapes"
    value {
      list {
        shape {
          dim {
            size: 256
          }
        }
      }
    }
  }
  attr {
    key: "use_locking"
    value {
      b: true
    }
  }
  attr {
    key: "validate_shape"
    value {
      b: true
    }
  }
}
node {
  name: "save_1/Assign_281"
  op: "Assign"
  input: "MobilenetV1/Conv2d_9_depthwise/BatchNorm/moving_mean"
  input: "save_1/RestoreV2:281"
  attr {
    key: "T"
    value {
      type: DT_FLOAT
    }
  }
  attr {
    key: "_class"
    value {
      list {
        s: "loc:@MobilenetV1/Conv2d_9_depthwise/BatchNorm/moving_mean"
      }
    }
  }
  attr {
    key: "_output_shapes"
    value {
      list {
        shape {
          dim {
            size: 256
          }
        }
      }
    }
  }
  attr {
    key: "use_locking"
    value {
      b: true
    }
  }
  attr {
    key: "validate_shape"
    value {
      b: true
    }
  }
}
node {
  name: "save_1/Assign_282"
  op: "Assign"
  input: "MobilenetV1/Conv2d_9_depthwise/BatchNorm/moving_variance"
  input: "save_1/RestoreV2:282"
  attr {
    key: "T"
    value {
      type: DT_FLOAT
    }
  }
  attr {
    key: "_class"
    value {
      list {
        s: "loc:@MobilenetV1/Conv2d_9_depthwise/BatchNorm/moving_variance"
      }
    }
  }
  attr {
    key: "_output_shapes"
    value {
      list {
        shape {
          dim {
            size: 256
          }
        }
      }
    }
  }
  attr {
    key: "use_locking"
    value {
      b: true
    }
  }
  attr {
    key: "validate_shape"
    value {
      b: true
    }
  }
}
node {
  name: "save_1/Assign_283"
  op: "Assign"
  input: "MobilenetV1/Conv2d_9_depthwise/depthwise_weights"
  input: "save_1/RestoreV2:283"
  attr {
    key: "T"
    value {
      type: DT_FLOAT
    }
  }
  attr {
    key: "_class"
    value {
      list {
        s: "loc:@MobilenetV1/Conv2d_9_depthwise/depthwise_weights"
      }
    }
  }
  attr {
    key: "_output_shapes"
    value {
      list {
        shape {
          dim {
            size: 3
          }
          dim {
            size: 3
          }
          dim {
            size: 256
          }
          dim {
            size: 1
          }
        }
      }
    }
  }
  attr {
    key: "use_locking"
    value {
      b: true
    }
  }
  attr {
    key: "validate_shape"
    value {
      b: true
    }
  }
}
node {
  name: "save_1/Assign_284"
  op: "Assign"
  input: "MobilenetV1/Conv2d_9_depthwise/depthwise_weights/Adam"
  input: "save_1/RestoreV2:284"
  attr {
    key: "T"
    value {
      type: DT_FLOAT
    }
  }
  attr {
    key: "_class"
    value {
      list {
        s: "loc:@MobilenetV1/Conv2d_9_depthwise/depthwise_weights"
      }
    }
  }
  attr {
    key: "_output_shapes"
    value {
      list {
        shape {
          dim {
            size: 3
          }
          dim {
            size: 3
          }
          dim {
            size: 256
          }
          dim {
            size: 1
          }
        }
      }
    }
  }
  attr {
    key: "use_locking"
    value {
      b: true
    }
  }
  attr {
    key: "validate_shape"
    value {
      b: true
    }
  }
}
node {
  name: "save_1/Assign_285"
  op: "Assign"
  input: "MobilenetV1/Conv2d_9_depthwise/depthwise_weights/Adam_1"
  input: "save_1/RestoreV2:285"
  attr {
    key: "T"
    value {
      type: DT_FLOAT
    }
  }
  attr {
    key: "_class"
    value {
      list {
        s: "loc:@MobilenetV1/Conv2d_9_depthwise/depthwise_weights"
      }
    }
  }
  attr {
    key: "_output_shapes"
    value {
      list {
        shape {
          dim {
            size: 3
          }
          dim {
            size: 3
          }
          dim {
            size: 256
          }
          dim {
            size: 1
          }
        }
      }
    }
  }
  attr {
    key: "use_locking"
    value {
      b: true
    }
  }
  attr {
    key: "validate_shape"
    value {
      b: true
    }
  }
}
node {
  name: "save_1/Assign_286"
  op: "Assign"
  input: "MobilenetV1/Conv2d_9_pointwise/BatchNorm/beta"
  input: "save_1/RestoreV2:286"
  attr {
    key: "T"
    value {
      type: DT_FLOAT
    }
  }
  attr {
    key: "_class"
    value {
      list {
        s: "loc:@MobilenetV1/Conv2d_9_pointwise/BatchNorm/beta"
      }
    }
  }
  attr {
    key: "_output_shapes"
    value {
      list {
        shape {
          dim {
            size: 256
          }
        }
      }
    }
  }
  attr {
    key: "use_locking"
    value {
      b: true
    }
  }
  attr {
    key: "validate_shape"
    value {
      b: true
    }
  }
}
node {
  name: "save_1/Assign_287"
  op: "Assign"
  input: "MobilenetV1/Conv2d_9_pointwise/BatchNorm/beta/Adam"
  input: "save_1/RestoreV2:287"
  attr {
    key: "T"
    value {
      type: DT_FLOAT
    }
  }
  attr {
    key: "_class"
    value {
      list {
        s: "loc:@MobilenetV1/Conv2d_9_pointwise/BatchNorm/beta"
      }
    }
  }
  attr {
    key: "_output_shapes"
    value {
      list {
        shape {
          dim {
            size: 256
          }
        }
      }
    }
  }
  attr {
    key: "use_locking"
    value {
      b: true
    }
  }
  attr {
    key: "validate_shape"
    value {
      b: true
    }
  }
}
node {
  name: "save_1/Assign_288"
  op: "Assign"
  input: "MobilenetV1/Conv2d_9_pointwise/BatchNorm/beta/Adam_1"
  input: "save_1/RestoreV2:288"
  attr {
    key: "T"
    value {
      type: DT_FLOAT
    }
  }
  attr {
    key: "_class"
    value {
      list {
        s: "loc:@MobilenetV1/Conv2d_9_pointwise/BatchNorm/beta"
      }
    }
  }
  attr {
    key: "_output_shapes"
    value {
      list {
        shape {
          dim {
            size: 256
          }
        }
      }
    }
  }
  attr {
    key: "use_locking"
    value {
      b: true
    }
  }
  attr {
    key: "validate_shape"
    value {
      b: true
    }
  }
}
node {
  name: "save_1/Assign_289"
  op: "Assign"
  input: "MobilenetV1/Conv2d_9_pointwise/BatchNorm/gamma"
  input: "save_1/RestoreV2:289"
  attr {
    key: "T"
    value {
      type: DT_FLOAT
    }
  }
  attr {
    key: "_class"
    value {
      list {
        s: "loc:@MobilenetV1/Conv2d_9_pointwise/BatchNorm/gamma"
      }
    }
  }
  attr {
    key: "_output_shapes"
    value {
      list {
        shape {
          dim {
            size: 256
          }
        }
      }
    }
  }
  attr {
    key: "use_locking"
    value {
      b: true
    }
  }
  attr {
    key: "validate_shape"
    value {
      b: true
    }
  }
}
node {
  name: "save_1/Assign_290"
  op: "Assign"
  input: "MobilenetV1/Conv2d_9_pointwise/BatchNorm/gamma/Adam"
  input: "save_1/RestoreV2:290"
  attr {
    key: "T"
    value {
      type: DT_FLOAT
    }
  }
  attr {
    key: "_class"
    value {
      list {
        s: "loc:@MobilenetV1/Conv2d_9_pointwise/BatchNorm/gamma"
      }
    }
  }
  attr {
    key: "_output_shapes"
    value {
      list {
        shape {
          dim {
            size: 256
          }
        }
      }
    }
  }
  attr {
    key: "use_locking"
    value {
      b: true
    }
  }
  attr {
    key: "validate_shape"
    value {
      b: true
    }
  }
}
node {
  name: "save_1/Assign_291"
  op: "Assign"
  input: "MobilenetV1/Conv2d_9_pointwise/BatchNorm/gamma/Adam_1"
  input: "save_1/RestoreV2:291"
  attr {
    key: "T"
    value {
      type: DT_FLOAT
    }
  }
  attr {
    key: "_class"
    value {
      list {
        s: "loc:@MobilenetV1/Conv2d_9_pointwise/BatchNorm/gamma"
      }
    }
  }
  attr {
    key: "_output_shapes"
    value {
      list {
        shape {
          dim {
            size: 256
          }
        }
      }
    }
  }
  attr {
    key: "use_locking"
    value {
      b: true
    }
  }
  attr {
    key: "validate_shape"
    value {
      b: true
    }
  }
}
node {
  name: "save_1/Assign_292"
  op: "Assign"
  input: "MobilenetV1/Conv2d_9_pointwise/BatchNorm/moving_mean"
  input: "save_1/RestoreV2:292"
  attr {
    key: "T"
    value {
      type: DT_FLOAT
    }
  }
  attr {
    key: "_class"
    value {
      list {
        s: "loc:@MobilenetV1/Conv2d_9_pointwise/BatchNorm/moving_mean"
      }
    }
  }
  attr {
    key: "_output_shapes"
    value {
      list {
        shape {
          dim {
            size: 256
          }
        }
      }
    }
  }
  attr {
    key: "use_locking"
    value {
      b: true
    }
  }
  attr {
    key: "validate_shape"
    value {
      b: true
    }
  }
}
node {
  name: "save_1/Assign_293"
  op: "Assign"
  input: "MobilenetV1/Conv2d_9_pointwise/BatchNorm/moving_variance"
  input: "save_1/RestoreV2:293"
  attr {
    key: "T"
    value {
      type: DT_FLOAT
    }
  }
  attr {
    key: "_class"
    value {
      list {
        s: "loc:@MobilenetV1/Conv2d_9_pointwise/BatchNorm/moving_variance"
      }
    }
  }
  attr {
    key: "_output_shapes"
    value {
      list {
        shape {
          dim {
            size: 256
          }
        }
      }
    }
  }
  attr {
    key: "use_locking"
    value {
      b: true
    }
  }
  attr {
    key: "validate_shape"
    value {
      b: true
    }
  }
}
node {
  name: "save_1/Assign_294"
  op: "Assign"
  input: "MobilenetV1/Conv2d_9_pointwise/weights"
  input: "save_1/RestoreV2:294"
  attr {
    key: "T"
    value {
      type: DT_FLOAT
    }
  }
  attr {
    key: "_class"
    value {
      list {
        s: "loc:@MobilenetV1/Conv2d_9_pointwise/weights"
      }
    }
  }
  attr {
    key: "_output_shapes"
    value {
      list {
        shape {
          dim {
            size: 1
          }
          dim {
            size: 1
          }
          dim {
            size: 256
          }
          dim {
            size: 256
          }
        }
      }
    }
  }
  attr {
    key: "use_locking"
    value {
      b: true
    }
  }
  attr {
    key: "validate_shape"
    value {
      b: true
    }
  }
}
node {
  name: "save_1/Assign_295"
  op: "Assign"
  input: "MobilenetV1/Conv2d_9_pointwise/weights/Adam"
  input: "save_1/RestoreV2:295"
  attr {
    key: "T"
    value {
      type: DT_FLOAT
    }
  }
  attr {
    key: "_class"
    value {
      list {
        s: "loc:@MobilenetV1/Conv2d_9_pointwise/weights"
      }
    }
  }
  attr {
    key: "_output_shapes"
    value {
      list {
        shape {
          dim {
            size: 1
          }
          dim {
            size: 1
          }
          dim {
            size: 256
          }
          dim {
            size: 256
          }
        }
      }
    }
  }
  attr {
    key: "use_locking"
    value {
      b: true
    }
  }
  attr {
    key: "validate_shape"
    value {
      b: true
    }
  }
}
node {
  name: "save_1/Assign_296"
  op: "Assign"
  input: "MobilenetV1/Conv2d_9_pointwise/weights/Adam_1"
  input: "save_1/RestoreV2:296"
  attr {
    key: "T"
    value {
      type: DT_FLOAT
    }
  }
  attr {
    key: "_class"
    value {
      list {
        s: "loc:@MobilenetV1/Conv2d_9_pointwise/weights"
      }
    }
  }
  attr {
    key: "_output_shapes"
    value {
      list {
        shape {
          dim {
            size: 1
          }
          dim {
            size: 1
          }
          dim {
            size: 256
          }
          dim {
            size: 256
          }
        }
      }
    }
  }
  attr {
    key: "use_locking"
    value {
      b: true
    }
  }
  attr {
    key: "validate_shape"
    value {
      b: true
    }
  }
}
node {
  name: "save_1/Assign_297"
  op: "Assign"
  input: "MobilenetV1/Logits/Conv2d_1c_1x1/biases"
  input: "save_1/RestoreV2:297"
  attr {
    key: "T"
    value {
      type: DT_FLOAT
    }
  }
  attr {
    key: "_class"
    value {
      list {
        s: "loc:@MobilenetV1/Logits/Conv2d_1c_1x1/biases"
      }
    }
  }
  attr {
    key: "_output_shapes"
    value {
      list {
        shape {
          dim {
            size: 2
          }
        }
      }
    }
  }
  attr {
    key: "use_locking"
    value {
      b: true
    }
  }
  attr {
    key: "validate_shape"
    value {
      b: true
    }
  }
}
node {
  name: "save_1/Assign_298"
  op: "Assign"
  input: "MobilenetV1/Logits/Conv2d_1c_1x1/biases/Adam"
  input: "save_1/RestoreV2:298"
  attr {
    key: "T"
    value {
      type: DT_FLOAT
    }
  }
  attr {
    key: "_class"
    value {
      list {
        s: "loc:@MobilenetV1/Logits/Conv2d_1c_1x1/biases"
      }
    }
  }
  attr {
    key: "_output_shapes"
    value {
      list {
        shape {
          dim {
            size: 2
          }
        }
      }
    }
  }
  attr {
    key: "use_locking"
    value {
      b: true
    }
  }
  attr {
    key: "validate_shape"
    value {
      b: true
    }
  }
}
node {
  name: "save_1/Assign_299"
  op: "Assign"
  input: "MobilenetV1/Logits/Conv2d_1c_1x1/biases/Adam_1"
  input: "save_1/RestoreV2:299"
  attr {
    key: "T"
    value {
      type: DT_FLOAT
    }
  }
  attr {
    key: "_class"
    value {
      list {
        s: "loc:@MobilenetV1/Logits/Conv2d_1c_1x1/biases"
      }
    }
  }
  attr {
    key: "_output_shapes"
    value {
      list {
        shape {
          dim {
            size: 2
          }
        }
      }
    }
  }
  attr {
    key: "use_locking"
    value {
      b: true
    }
  }
  attr {
    key: "validate_shape"
    value {
      b: true
    }
  }
}
node {
  name: "save_1/Assign_300"
  op: "Assign"
  input: "MobilenetV1/Logits/Conv2d_1c_1x1/weights"
  input: "save_1/RestoreV2:300"
  attr {
    key: "T"
    value {
      type: DT_FLOAT
    }
  }
  attr {
    key: "_class"
    value {
      list {
        s: "loc:@MobilenetV1/Logits/Conv2d_1c_1x1/weights"
      }
    }
  }
  attr {
    key: "_output_shapes"
    value {
      list {
        shape {
          dim {
            size: 1
          }
          dim {
            size: 1
          }
          dim {
            size: 512
          }
          dim {
            size: 2
          }
        }
      }
    }
  }
  attr {
    key: "use_locking"
    value {
      b: true
    }
  }
  attr {
    key: "validate_shape"
    value {
      b: true
    }
  }
}
node {
  name: "save_1/Assign_301"
  op: "Assign"
  input: "MobilenetV1/Logits/Conv2d_1c_1x1/weights/Adam"
  input: "save_1/RestoreV2:301"
  attr {
    key: "T"
    value {
      type: DT_FLOAT
    }
  }
  attr {
    key: "_class"
    value {
      list {
        s: "loc:@MobilenetV1/Logits/Conv2d_1c_1x1/weights"
      }
    }
  }
  attr {
    key: "_output_shapes"
    value {
      list {
        shape {
          dim {
            size: 1
          }
          dim {
            size: 1
          }
          dim {
            size: 512
          }
          dim {
            size: 2
          }
        }
      }
    }
  }
  attr {
    key: "use_locking"
    value {
      b: true
    }
  }
  attr {
    key: "validate_shape"
    value {
      b: true
    }
  }
}
node {
  name: "save_1/Assign_302"
  op: "Assign"
  input: "MobilenetV1/Logits/Conv2d_1c_1x1/weights/Adam_1"
  input: "save_1/RestoreV2:302"
  attr {
    key: "T"
    value {
      type: DT_FLOAT
    }
  }
  attr {
    key: "_class"
    value {
      list {
        s: "loc:@MobilenetV1/Logits/Conv2d_1c_1x1/weights"
      }
    }
  }
  attr {
    key: "_output_shapes"
    value {
      list {
        shape {
          dim {
            size: 1
          }
          dim {
            size: 1
          }
          dim {
            size: 512
          }
          dim {
            size: 2
          }
        }
      }
    }
  }
  attr {
    key: "use_locking"
    value {
      b: true
    }
  }
  attr {
    key: "validate_shape"
    value {
      b: true
    }
  }
}
node {
  name: "save_1/Assign_303"
  op: "Assign"
  input: "beta1_power"
  input: "save_1/RestoreV2:303"
  attr {
    key: "T"
    value {
      type: DT_FLOAT
    }
  }
  attr {
    key: "_class"
    value {
      list {
        s: "loc:@MobilenetV1/Conv2d_0/BatchNorm/beta"
      }
    }
  }
  attr {
    key: "_output_shapes"
    value {
      list {
        shape {
        }
      }
    }
  }
  attr {
    key: "use_locking"
    value {
      b: true
    }
  }
  attr {
    key: "validate_shape"
    value {
      b: true
    }
  }
}
node {
  name: "save_1/Assign_304"
  op: "Assign"
  input: "beta2_power"
  input: "save_1/RestoreV2:304"
  attr {
    key: "T"
    value {
      type: DT_FLOAT
    }
  }
  attr {
    key: "_class"
    value {
      list {
        s: "loc:@MobilenetV1/Conv2d_0/BatchNorm/beta"
      }
    }
  }
  attr {
    key: "_output_shapes"
    value {
      list {
        shape {
        }
      }
    }
  }
  attr {
    key: "use_locking"
    value {
      b: true
    }
  }
  attr {
    key: "validate_shape"
    value {
      b: true
    }
  }
}
node {
  name: "save_1/Assign_305"
  op: "Assign"
  input: "global_step"
  input: "save_1/RestoreV2:305"
  attr {
    key: "T"
    value {
      type: DT_INT64
    }
  }
  attr {
    key: "_class"
    value {
      list {
        s: "loc:@global_step"
      }
    }
  }
  attr {
    key: "_output_shapes"
    value {
      list {
        shape {
        }
      }
    }
  }
  attr {
    key: "use_locking"
    value {
      b: true
    }
  }
  attr {
    key: "validate_shape"
    value {
      b: true
    }
  }
}
node {
  name: "save_1/restore_shard"
  op: "NoOp"
  input: "^save_1/Assign"
  input: "^save_1/Assign_1"
  input: "^save_1/Assign_2"
  input: "^save_1/Assign_3"
  input: "^save_1/Assign_4"
  input: "^save_1/Assign_5"
  input: "^save_1/Assign_6"
  input: "^save_1/Assign_7"
  input: "^save_1/Assign_8"
  input: "^save_1/Assign_9"
  input: "^save_1/Assign_10"
  input: "^save_1/Assign_11"
  input: "^save_1/Assign_12"
  input: "^save_1/Assign_13"
  input: "^save_1/Assign_14"
  input: "^save_1/Assign_15"
  input: "^save_1/Assign_16"
  input: "^save_1/Assign_17"
  input: "^save_1/Assign_18"
  input: "^save_1/Assign_19"
  input: "^save_1/Assign_20"
  input: "^save_1/Assign_21"
  input: "^save_1/Assign_22"
  input: "^save_1/Assign_23"
  input: "^save_1/Assign_24"
  input: "^save_1/Assign_25"
  input: "^save_1/Assign_26"
  input: "^save_1/Assign_27"
  input: "^save_1/Assign_28"
  input: "^save_1/Assign_29"
  input: "^save_1/Assign_30"
  input: "^save_1/Assign_31"
  input: "^save_1/Assign_32"
  input: "^save_1/Assign_33"
  input: "^save_1/Assign_34"
  input: "^save_1/Assign_35"
  input: "^save_1/Assign_36"
  input: "^save_1/Assign_37"
  input: "^save_1/Assign_38"
  input: "^save_1/Assign_39"
  input: "^save_1/Assign_40"
  input: "^save_1/Assign_41"
  input: "^save_1/Assign_42"
  input: "^save_1/Assign_43"
  input: "^save_1/Assign_44"
  input: "^save_1/Assign_45"
  input: "^save_1/Assign_46"
  input: "^save_1/Assign_47"
  input: "^save_1/Assign_48"
  input: "^save_1/Assign_49"
  input: "^save_1/Assign_50"
  input: "^save_1/Assign_51"
  input: "^save_1/Assign_52"
  input: "^save_1/Assign_53"
  input: "^save_1/Assign_54"
  input: "^save_1/Assign_55"
  input: "^save_1/Assign_56"
  input: "^save_1/Assign_57"
  input: "^save_1/Assign_58"
  input: "^save_1/Assign_59"
  input: "^save_1/Assign_60"
  input: "^save_1/Assign_61"
  input: "^save_1/Assign_62"
  input: "^save_1/Assign_63"
  input: "^save_1/Assign_64"
  input: "^save_1/Assign_65"
  input: "^save_1/Assign_66"
  input: "^save_1/Assign_67"
  input: "^save_1/Assign_68"
  input: "^save_1/Assign_69"
  input: "^save_1/Assign_70"
  input: "^save_1/Assign_71"
  input: "^save_1/Assign_72"
  input: "^save_1/Assign_73"
  input: "^save_1/Assign_74"
  input: "^save_1/Assign_75"
  input: "^save_1/Assign_76"
  input: "^save_1/Assign_77"
  input: "^save_1/Assign_78"
  input: "^save_1/Assign_79"
  input: "^save_1/Assign_80"
  input: "^save_1/Assign_81"
  input: "^save_1/Assign_82"
  input: "^save_1/Assign_83"
  input: "^save_1/Assign_84"
  input: "^save_1/Assign_85"
  input: "^save_1/Assign_86"
  input: "^save_1/Assign_87"
  input: "^save_1/Assign_88"
  input: "^save_1/Assign_89"
  input: "^save_1/Assign_90"
  input: "^save_1/Assign_91"
  input: "^save_1/Assign_92"
  input: "^save_1/Assign_93"
  input: "^save_1/Assign_94"
  input: "^save_1/Assign_95"
  input: "^save_1/Assign_96"
  input: "^save_1/Assign_97"
  input: "^save_1/Assign_98"
  input: "^save_1/Assign_99"
  input: "^save_1/Assign_100"
  input: "^save_1/Assign_101"
  input: "^save_1/Assign_102"
  input: "^save_1/Assign_103"
  input: "^save_1/Assign_104"
  input: "^save_1/Assign_105"
  input: "^save_1/Assign_106"
  input: "^save_1/Assign_107"
  input: "^save_1/Assign_108"
  input: "^save_1/Assign_109"
  input: "^save_1/Assign_110"
  input: "^save_1/Assign_111"
  input: "^save_1/Assign_112"
  input: "^save_1/Assign_113"
  input: "^save_1/Assign_114"
  input: "^save_1/Assign_115"
  input: "^save_1/Assign_116"
  input: "^save_1/Assign_117"
  input: "^save_1/Assign_118"
  input: "^save_1/Assign_119"
  input: "^save_1/Assign_120"
  input: "^save_1/Assign_121"
  input: "^save_1/Assign_122"
  input: "^save_1/Assign_123"
  input: "^save_1/Assign_124"
  input: "^save_1/Assign_125"
  input: "^save_1/Assign_126"
  input: "^save_1/Assign_127"
  input: "^save_1/Assign_128"
  input: "^save_1/Assign_129"
  input: "^save_1/Assign_130"
  input: "^save_1/Assign_131"
  input: "^save_1/Assign_132"
  input: "^save_1/Assign_133"
  input: "^save_1/Assign_134"
  input: "^save_1/Assign_135"
  input: "^save_1/Assign_136"
  input: "^save_1/Assign_137"
  input: "^save_1/Assign_138"
  input: "^save_1/Assign_139"
  input: "^save_1/Assign_140"
  input: "^save_1/Assign_141"
  input: "^save_1/Assign_142"
  input: "^save_1/Assign_143"
  input: "^save_1/Assign_144"
  input: "^save_1/Assign_145"
  input: "^save_1/Assign_146"
  input: "^save_1/Assign_147"
  input: "^save_1/Assign_148"
  input: "^save_1/Assign_149"
  input: "^save_1/Assign_150"
  input: "^save_1/Assign_151"
  input: "^save_1/Assign_152"
  input: "^save_1/Assign_153"
  input: "^save_1/Assign_154"
  input: "^save_1/Assign_155"
  input: "^save_1/Assign_156"
  input: "^save_1/Assign_157"
  input: "^save_1/Assign_158"
  input: "^save_1/Assign_159"
  input: "^save_1/Assign_160"
  input: "^save_1/Assign_161"
  input: "^save_1/Assign_162"
  input: "^save_1/Assign_163"
  input: "^save_1/Assign_164"
  input: "^save_1/Assign_165"
  input: "^save_1/Assign_166"
  input: "^save_1/Assign_167"
  input: "^save_1/Assign_168"
  input: "^save_1/Assign_169"
  input: "^save_1/Assign_170"
  input: "^save_1/Assign_171"
  input: "^save_1/Assign_172"
  input: "^save_1/Assign_173"
  input: "^save_1/Assign_174"
  input: "^save_1/Assign_175"
  input: "^save_1/Assign_176"
  input: "^save_1/Assign_177"
  input: "^save_1/Assign_178"
  input: "^save_1/Assign_179"
  input: "^save_1/Assign_180"
  input: "^save_1/Assign_181"
  input: "^save_1/Assign_182"
  input: "^save_1/Assign_183"
  input: "^save_1/Assign_184"
  input: "^save_1/Assign_185"
  input: "^save_1/Assign_186"
  input: "^save_1/Assign_187"
  input: "^save_1/Assign_188"
  input: "^save_1/Assign_189"
  input: "^save_1/Assign_190"
  input: "^save_1/Assign_191"
  input: "^save_1/Assign_192"
  input: "^save_1/Assign_193"
  input: "^save_1/Assign_194"
  input: "^save_1/Assign_195"
  input: "^save_1/Assign_196"
  input: "^save_1/Assign_197"
  input: "^save_1/Assign_198"
  input: "^save_1/Assign_199"
  input: "^save_1/Assign_200"
  input: "^save_1/Assign_201"
  input: "^save_1/Assign_202"
  input: "^save_1/Assign_203"
  input: "^save_1/Assign_204"
  input: "^save_1/Assign_205"
  input: "^save_1/Assign_206"
  input: "^save_1/Assign_207"
  input: "^save_1/Assign_208"
  input: "^save_1/Assign_209"
  input: "^save_1/Assign_210"
  input: "^save_1/Assign_211"
  input: "^save_1/Assign_212"
  input: "^save_1/Assign_213"
  input: "^save_1/Assign_214"
  input: "^save_1/Assign_215"
  input: "^save_1/Assign_216"
  input: "^save_1/Assign_217"
  input: "^save_1/Assign_218"
  input: "^save_1/Assign_219"
  input: "^save_1/Assign_220"
  input: "^save_1/Assign_221"
  input: "^save_1/Assign_222"
  input: "^save_1/Assign_223"
  input: "^save_1/Assign_224"
  input: "^save_1/Assign_225"
  input: "^save_1/Assign_226"
  input: "^save_1/Assign_227"
  input: "^save_1/Assign_228"
  input: "^save_1/Assign_229"
  input: "^save_1/Assign_230"
  input: "^save_1/Assign_231"
  input: "^save_1/Assign_232"
  input: "^save_1/Assign_233"
  input: "^save_1/Assign_234"
  input: "^save_1/Assign_235"
  input: "^save_1/Assign_236"
  input: "^save_1/Assign_237"
  input: "^save_1/Assign_238"
  input: "^save_1/Assign_239"
  input: "^save_1/Assign_240"
  input: "^save_1/Assign_241"
  input: "^save_1/Assign_242"
  input: "^save_1/Assign_243"
  input: "^save_1/Assign_244"
  input: "^save_1/Assign_245"
  input: "^save_1/Assign_246"
  input: "^save_1/Assign_247"
  input: "^save_1/Assign_248"
  input: "^save_1/Assign_249"
  input: "^save_1/Assign_250"
  input: "^save_1/Assign_251"
  input: "^save_1/Assign_252"
  input: "^save_1/Assign_253"
  input: "^save_1/Assign_254"
  input: "^save_1/Assign_255"
  input: "^save_1/Assign_256"
  input: "^save_1/Assign_257"
  input: "^save_1/Assign_258"
  input: "^save_1/Assign_259"
  input: "^save_1/Assign_260"
  input: "^save_1/Assign_261"
  input: "^save_1/Assign_262"
  input: "^save_1/Assign_263"
  input: "^save_1/Assign_264"
  input: "^save_1/Assign_265"
  input: "^save_1/Assign_266"
  input: "^save_1/Assign_267"
  input: "^save_1/Assign_268"
  input: "^save_1/Assign_269"
  input: "^save_1/Assign_270"
  input: "^save_1/Assign_271"
  input: "^save_1/Assign_272"
  input: "^save_1/Assign_273"
  input: "^save_1/Assign_274"
  input: "^save_1/Assign_275"
  input: "^save_1/Assign_276"
  input: "^save_1/Assign_277"
  input: "^save_1/Assign_278"
  input: "^save_1/Assign_279"
  input: "^save_1/Assign_280"
  input: "^save_1/Assign_281"
  input: "^save_1/Assign_282"
  input: "^save_1/Assign_283"
  input: "^save_1/Assign_284"
  input: "^save_1/Assign_285"
  input: "^save_1/Assign_286"
  input: "^save_1/Assign_287"
  input: "^save_1/Assign_288"
  input: "^save_1/Assign_289"
  input: "^save_1/Assign_290"
  input: "^save_1/Assign_291"
  input: "^save_1/Assign_292"
  input: "^save_1/Assign_293"
  input: "^save_1/Assign_294"
  input: "^save_1/Assign_295"
  input: "^save_1/Assign_296"
  input: "^save_1/Assign_297"
  input: "^save_1/Assign_298"
  input: "^save_1/Assign_299"
  input: "^save_1/Assign_300"
  input: "^save_1/Assign_301"
  input: "^save_1/Assign_302"
  input: "^save_1/Assign_303"
  input: "^save_1/Assign_304"
  input: "^save_1/Assign_305"
}
node {
  name: "save_1/restore_all"
  op: "NoOp"
  input: "^save_1/restore_shard"
}
versions {
  producer: 26
}
